hw1/data/results/session_reacher_pytorch/checkpoint.pth (torch_old, 7117 bytes, 6 tensors)

_fc1.weight f4 [32, 11]
-0.033226773 0.07379859 -0.29156718 -0.1822879 -0.4165256 0.61110073 0.040175144 0.18478632
0.11578268 -0.5244234 -0.091120675 0.023179928 -0.26506034 -0.34471712 -0.2738123 0.38114408
-0.041558407 0.15902223 -0.20838703 -0.45807925 -0.051165335 0.2503714 -0.0214889 0.36952052
0.10665746 -0.13014881 0.40489805 -0.9293063 -0.12132469 0.023641985 -0.19427082 0.95978856
-0.19543353 -0.09710023 -0.12780742 -0.0653251 -0.11164094 0.6963845 0.7638164 0.16728202
0.07566708 -0.37465912 -0.8789157 -0.28151956 -0.09902347 -0.08677875 0.34404892 0.33571017
0.27942598 0.79465926 0.20594077 0.24445069 -0.1184508 -0.8212703 0.20215923 -0.23255108
0.062250424 -0.17992088 -0.26195577 -0.39396262 -0.49687114 0.02819465 -0.18998092 0.19229512
0.58076537 -0.038055956 0.07065489 0.25536114 0.28861788 0.20174716 -0.010943052 -0.6361425
0.123050265 0.31953532 0.2910438 0.8541955 0.06000516 -0.18184467 0.11711976 -0.29879338
-0.6196465 0.931183 -0.47339594 -0.255783 0.07036458 -0.37121704 0.43535936 -0.13801889
0.19642034 -0.13238576 -0.08160645 0.1084162 -0.114928626 0.4220734 -0.21345581 -0.17847712
0.5106916 -0.35327494 -0.23520419 -0.10204939 0.38322774 0.16242224 0.12254248 -0.29467645
0.23554204 -0.02489584 -0.23280302 -0.03178578 -0.5075549 0.045270443 -0.21661624 0.22738269
-0.2303184 0.10205578 -0.050853863 -0.6803466 -0.09763978 -0.004249164 0.13743143 0.38290897
0.11832157 0.010709132 -0.12941465 0.1660329 -0.26229122 0.07914622 -0.82076657 -0.1001961
-0.065120265 -0.44301113 0.87058866 0.064449996 -0.2020408 0.094746225 0.26342452 0.41989362
0.20954773 1.1904516 0.02541978 0.008302202 0.17153615 -1.0035647 0.28625894 0.10362367
-0.2503244 -0.0390073 0.51167977 -0.18941449 -0.77384734 -0.15307894 -0.13628976 -0.18776904
1.2005459 0.16535065 0.12739094 -0.19905289 0.11734775 -0.26658466 -0.27012038 -1.3524764
-0.01611209 -0.018560063 -0.09966877 1.0007248 -0.047180325 0.10167646 0.007971671 0.19302061
-0.2904539 -0.22686057 0.76361126 -0.07499139 0.2805425 0.33575016 -0.80459034 0.19076544
0.10633713 -0.1713445 0.08188834 -0.19360594 -0.5021762 -0.08489857 0.23662831 0.036856905
0.653307 0.035369426 -0.07250585 0.11759631 0.00044136876 0.06453725 0.18304348 0.7630117
-0.091879345 0.036118355 -0.25508335 -0.31707627 -0.33161262 0.10304001 -0.14868544 -0.0041437354
0.25035545 0.34993747 0.48695958 0.28962106 -0.103996776 0.2482174 -0.6523203 -0.112128414
0.10902879 -0.0013524527 -0.12639844 -0.07277327 0.03657927 -0.25944957 -0.66715217 0.06858018
-0.21309437 -0.12225878 0.57031363 -0.24469054 0.06394273 0.28906044 0.05155386 0.11726933
-0.28389272 0.53037673 -0.30604863 -0.13632017 -0.033309665 -0.40934074 0.0032980144 0.31290418
0.083930686 0.060203172 0.14444885 -0.69845366 -0.5827505 -0.20546392 -0.11220453 0.40770495
0.7679064 0.22620225 0.045448232 0.0011425536 0.012861574 -0.3010389 0.662586 -0.6672492
-0.08590896 -0.103383526 -0.44592062 0.2442698 0.2493254 -0.11775374 -0.1570869 -0.2762922
00000000: cc18 08bd b723 973d 4b48 95be aea9 3abe
00000010: d842 d5be 1971 1c3f b18e 243d a038 3d3e
00000020: 781f ed3d 9d40 06bf 7a9d babd d5e3 bd3c
00000030: fdb5 87be c37e b0be 2031 8cbe 5125 c33e
00000040: 2639 2abd b9d6 223e 6963 55be 5d89 eabe
00000050: be92 51bd ae30 803e 7d09 b0bc cb31 bd3e
00000060: 3a6f da3d bb45 05be cc4e cf3e 05e7 6dbf
00000070: 1479 f8bd d6ac c13c eeee 46be b4b4 753f
00000080: ba1f 48be 7cdc c6bd f3df 02be 2bc9 85bd
00000090: 01a4 e4bd 4146 323f 7989 433f fa4b 2b3e
000000a0: 58f7 9a3d 52d3 bfbe 9f00 61bf 5523 90be
000000b0: d1cc cabd 0fb9 b1bd 2e27 b03e 34e2 ab3e
000000c0: ec10 8f3e ca6e 4b3f 23e2 523e 4851 7a3e
000000d0: 5596 f2bd c53e 52bf d402 4f3e df21 6ebe
000000e0: 4dfa 7e3d 2e3d 38be 111f 86be 78b5 c9be
000000f0: e565 febe 77f8 e63c 5c8a 42be 03e9 443e
00000100: 0aad 143f 90e0 1bbd 83b3 903d b2be 823e
00000110: b9c5 933e cf96 4e3e 7d4a 33bc 3cda 22bf
00000120: c701 fc3d 229a a33e b103 953e 8eac 5a3f
00000130: f8c7 753d 7d35 3abe 7cdc ef3d 72fb 98be
00000140: 27a1 1ebf 0262 6e3f f460 f2be fdf5 82be
00000150: 4e1b 903d 2910 bebe 6ce7 de3e d354 0dbe
00000160: 6a22 493e 2290 07be 4821 a7bd 5009 de3d
00000170: b35f ebbd 011a d83e 2994 5abe b5c2 36be
00000180: afbc 023f 74e0 b4be 5ed9 70be 45ff d0bd
00000190: 6d36 c43e 0452 263e 8df7 fa3d d5df 96be
000001a0: ef31 713e 5cf2 cbbc ea63 6ebe ce31 02bd
000001b0: 1eef 01bf 806d 393d a6d0 5dbe 02d7 683e
000001c0: 96d8 6bbe 9f02 d13d 244c 50bd 322b 2ebf
000001d0: 5df7 c7bd 923c 8bbb d3ba 0c3e a50c c43e
000001e0: 9452 f23d 5b75 2f3c 4685 04be 8704 2a3e
000001f0: 094b 86be 6a17 a23d c21d 52bf 9d33 cdbd
00000200: c65d 85bd 5bd2 e2be e6de 5e3f 5cfe 833d
00000210: c9e3 4ebe 4f0a c23d 94df 863e 4cfc d63e
00000220: ae93 563e b860 983f 243d d03c f605 083c
00000230: 2ca7 2f3e cf74 80bf 8890 923e a638 d43d
00000240: 852a 80be 1ec6 1fbd 72fd 023f dff5 41be
00000250: dc1a 46bf bac0 1cbe 8b8f 0bbe 8746 40be
00000260: 7dab 993f ae51 293e c572 023e 85d4 4bbe
00000270: 0454 f03d c97d 88be 384d 8abe f21d adbf
00000280: 80fd 83bc 460b 98bc 241f ccbd c017 803f
00000290: 2840 41bd bf3b d03d 9d9b 023c 32a7 453e
000002a0: 60b6 94be 234e 68be 077c 433f 1695 99bd
000002b0: 44a3 8f3e 72e7 ab3e a2f9 4dbf 0458 433e
000002c0: 48c7 d93d ef74 2fbe 13b5 a73d a340 46be
000002d0: 9f8e 00bf 4ddf adbd b14e 723e 44f7 163d
000002e0: 213f 273f 88df 103d f27d 94bd 56d6 f03d
000002f0: 8367 e739 1b2c 843d c06f 3b3e bc54 433f
00000300: 3d2b bcbd d7f0 133d 499a 82be d257 a2be
00000310: 21c9 a9be a406 d33d ff40 18be 2cc8 87bb
00000320: 972e 803e 012b b33e c452 f93e 3649 943e
00000330: 43fc d4bd b42c 7e3e 77fe 26bf 95a3 e5bd
00000340: 7c4a df3d c844 b1ba 986e 01be 270a 95bd
00000350: 25d4 153d 93d6 84be 7cca 2abf c473 8c3d
00000360: 6935 5abe d062 fabd 1300 123f 2890 7abe
00000370: 68f4 823d bbff 933e 242a 533d e72a f03d
00000380: 635a 91be c5c6 073f 68b2 9cbe 8497 0bbe
00000390: b76f 08bd 1c95 d1be 8023 583b fa34 a03e
000003a0: dae3 ab3d 9a97 763d 66ea 133e dccd 32bf
000003b0: 232f 15bf 2265 52be 7dcb e5bd b4be d03e
000003c0: 8495 443f 90a1 673e ed27 3a3d bdc1 953a
000003d0: 5ab9 523c c521 9abe 3c9f 293f d8d0 2abf
000003e0: 09f1 afbd beba d3bd b54f e4be dd21 7a3e
000003f0: 284f 7f3e df28 f1bd 63db 20be 2c76 8dbe

_fc1.bias f4 [32]
-0.08568648 0.27780402 0.12190041 0.18147717 0.05183019 0.12132118 -0.14386456 0.115691185
0.016270138 -0.3447411 -0.2911096 0.2860255 0.2178742 0.32999513 0.24167185 -0.1294959
-0.16131957 0.17671384 -0.10780962 0.15042743 -0.19280156 -0.15397976 -0.20895141 -0.16787948
0.2679026 0.10984706 0.22351712 0.17163499 0.32432294 -0.014352649 0.05153375 0.2210714
00000000: 657c afbd 543c 8e3e eca6 f93d 27d5 393e
00000010: e54b 543d 3d77 f83d 3b51 13be 80ef ec3d
00000020: f448 853c e881 b0be 510c 95be ef71 923e
00000030: 6a1a 5f3e 1ff5 a83e d378 773e 939a 04be
00000040: f530 25be 79f4 343e 4acb dcbd a609 1a3e
00000050: c66d 45be dfac 1dbe 5cf7 55be 99e8 2bbe
00000060: 882a 893e 7ff7 e03d ace1 643e 15c1 2f3e
00000070: a80d a63e 6027 6bbc 0e15 533d 8b60 623e

_fc2.weight f4 [32, 32]
0.10695621 0.25730902 0.15420878 0.10948954 -0.11366278 0.05996865 0.010827806 -0.051177908
-0.13648765 -0.15591596 -0.019650469 0.12654327 0.094490886 -0.0826453 -0.11355072 0.108744875
0.100148566 0.00041131454 -0.2285296 0.122627564 0.05663961 -0.20632283 0.27136606 0.19564974
-0.084239215 0.068211526 -0.1489164 0.030627342 0.12683582 0.026748663 -0.13319184 -0.12278768
-0.30475894 -0.12910856 0.3150333 -0.027104402 -0.10909847 0.03571372 0.049057737 -0.35812578
0.06477466 -0.15822862 -0.13593881 -0.43828842 -0.12798709 -0.32537037 -0.58197397 -0.0047462704
0.142736 0.1186167 -0.38764185 -0.032279562 0.19243252 0.031245107 0.22141698 -0.29644483
0.11256606 -0.035818465 0.0126184765 0.089557074 -0.11558701 0.16433017 -0.08423694 0.145212
-0.042752452 -0.22088929 0.1871089 0.12362579 0.29341897 0.096307024 -0.05464663 0.14967799
0.0007460011 0.10932399 -0.28108492 -0.038505226 -0.20613278 -0.09478493 0.05074952 -0.2195809
0.052170586 0.10559533 -0.012937096 -0.10792655 -0.14434369 -0.027611764 0.013305731 0.14116687
0.11936819 0.022383656 0.09230341 -0.18726361 -0.15837131 0.17043287 -0.04770606 0.12976742
-0.19558132 -0.13601716 -0.15951306 0.17171374 0.03452604 0.16937968 0.10687056 0.11034746
0.02923457 -0.04480952 -0.15541606 0.00722998 0.08098749 -0.11942468 0.150934 -0.1243417
-0.14323993 -0.123785205 0.20909981 0.16343819 -0.10836578 0.18635714 0.025079701 0.09150405
0.17825256 -0.072513364 0.02287286 0.11322185 -0.11020544 0.046684075 -0.012140223 0.11355563
-0.012179072 -0.09800988 0.03073163 0.32012954 -0.10424571 -0.0829904 0.019202588 0.043243866
0.25597692 -0.20172401 -0.08324049 -0.018523205 -0.052934077 -0.08637236 0.067788206 -0.11415122
-0.007976654 0.0011542088 0.26133955 0.13631576 0.007209688 -0.24332836 -0.42914066 -0.523546
-0.06554939 -0.13071634 -0.17370026 0.53816706 -0.0744925 -0.044221494 -0.12586693 -0.14762427
-0.033024244 0.09806174 -0.12750815 -0.0055347076 0.073225304 0.15179284 -0.20359163 -0.14975716
0.19145754 -0.08116867 -0.05212478 0.042113625 0.016961552 -0.039504 0.081956685 0.04701377
-0.29421383 -0.026087383 0.16691017 0.06380296 -0.085355826 0.12835202 -0.060057886 -0.082551755
0.13950735 0.14903888 0.2837547 0.03093543 0.007563332 -0.13463992 0.1102 0.23072675
-0.12997587 -0.058721565 0.048779946 0.3881526 -0.068997115 -0.08993769 -0.047139984 0.022614256
-0.011615751 -0.07904225 0.1786871 0.030162396 0.08635547 0.14851943 0.06546662 -0.3875428
0.13693504 0.15878153 -0.1024954 0.1699288 -0.16160391 0.23312458 0.29924205 0.1855779
-0.13523321 -0.08667718 -0.32074547 0.056093447 -0.2190455 -0.12538707 0.10172311 -0.06269627
-0.1529612 0.021519495 0.09720654 -0.10691647 0.20078431 -0.006144378 0.19683559 0.1532247
0.034552984 -0.018224768 0.22714359 0.035391826 0.1244011 0.16832033 0.15784763 -0.23084569
-0.0018430257 -0.15873781 0.18736391 0.016746342 -0.2734855 -0.012103019 0.20999858 0.06350552
0.055359423 -0.021625472 0.0048909956 0.16922216 -0.20092086 -0.36864343 -0.10368633 0.07049863
00000000: dc0b db3d 02be 833e e8e8 1d3e 0d3c e03d
00000010: 08c8 e8bd b0a1 753d 1c67 313c ed9f 51bd
00000020: 6bc3 0bbe 6fa8 1fbe 05fa a0bc 8f94 013e
00000030: 7084 c13d f041 a9bd 488d e8bd a2b5 de3d
00000040: b11a cd3d b4a5 d739 aa03 6abe 2924 fb3d
00000050: f0fe 673d 4b46 53be 7ef0 8a3e 6858 483e
00000060: 9c85 acbd 7cb2 8b3d 8a7d 18be 31e6 fa3c
00000070: 40e1 013e 0320 db3c 7163 08be 1b78 fbbd
00000080: 5d09 9cbe 0935 04be 0b4c a13e 0d0a debc
00000090: 056f dfbd 8d48 123d c4f0 483d 435c b7be
000000a0: 94a8 843d af06 22be 8b33 0bbe 5767 e0be
000000b0: 0c0f 03be f296 a6be 3ffc 14bf 9a86 9bbb
000000c0: 6329 123e 50ed f23d fe78 c6be 9337 04bd
000000d0: 080d 453e bdf5 ff3c 22bb 623e 9ec7 97be
000000e0: 0989 e63d 62b6 12bd babd 4e3c b369 b73d
000000f0: e2b8 ecbd 2b46 283e 6b84 acbd 74b2 143e
00000100: 321d 2fbd cd30 62be 7a99 3f3e 852f fd3d
00000110: 033b 963e 9e3c c53d 25d5 5fbd 3045 193e
00000120: 498f 433a 42e5 df3d 5dea 8fbe a8b7 1dbd
00000130: 7914 53be 9a1e c2bd bbde 4f3d d1d9 60be
00000140: d3b0 553d 5d42 d83d 1df6 53bc 9808 ddbd
00000150: d5ce 13be 1132 e2bc 4800 5a3c 0c8e 103e
00000160: 4f77 f43d ee5d b73c 9209 bd3d 08c2 3fbe
00000170: 172c 22be f485 2e3e 6e67 43bd c0e1 043e
00000180: 7846 48be 1548 0bbe 6457 23be bad5 2f3e
00000190: 2d6b 0d3d de71 2d3e f4de da3d d9fd e13d
000001a0: 567d ef3c 308a 37bd 6325 1fbe 78e9 ec3b
000001b0: c5dc a53d ed94 f4bd 718e 1a3e dca6 febd
000001c0: 7dad 12be 1983 fdbd 431e 563e 575c 273e
000001d0: e1ee ddbd 68d4 3e3e f273 cd3c 7a66 bb3d
000001e0: d787 363e e381 94bd dd5f bb3c dbe0 e73d
000001f0: 64b3 e1bd cd37 3f3d c9e7 46bc db8f e83d
00000200: bb8a 47bc 67b9 c8bd e6c0 fb3c 05e8 a33e
00000210: c67e d5bd dff6 a9bd bf4e 9d3c 7b20 313d
00000220: 680f 833e bd90 4ebe fd79 aabd fabd 97bc
00000230: 67d1 58bd fee3 b0bd 8bd4 8a3d 1dc8 e9bd
00000240: 83b0 02bc d248 973a 4cce 853e 5c96 0b3e
00000250: 3f3f ec3b 122b 79be 53b8 dbbe 1c07 06bf
00000260: c23e 86bd 81da 05be 7bde 31be 51c5 093f
00000270: 868f 98bd 9921 35bd 43e3 00be d12a 17be
00000280: 6e44 07bd 98d4 c83d 7f91 02be 7e5c b5bb
00000290: 26f7 953d 956f 1b3e 537a 50be f159 19be
000002a0: 720d 443e c23b a6bd cb80 55bd 567f 2c3d
000002b0: f4f2 8a3c f2ce 21bd e8d8 a73d 8391 403d
000002c0: 32a3 96be 35b5 d5bc 80ea 2a3e 20ab 823d
000002d0: 09cf aebd b66e 033e 42ff 75bd e510 a9bd
000002e0: 04db 0e3e a69d 183e 4c48 913e 4d6c fd3c
000002f0: d4d5 f73b 0cdf 09be 8ab0 e13d a243 6c3e
00000300: 6518 05be 0686 70bd 7bcd 473d f0bb c63e
00000310: 5c4e 8dbd 4031 b8bd db15 41bd 8841 b93c
00000320: fe4f 3ebc e7e0 a1bd c0f9 363e 2117 f73c
00000330: 23db b03d 7a15 183e 5d13 863d 036c c6be
00000340: b338 0c3e a097 223e 1ce9 d1bd d101 2e3e
00000350: 7f7b 25be 36b8 6e3e 4136 993e 2208 3e3e
00000360: 937a 0abe ce83 b1bd c038 a4be 3ec2 653d
00000370: 774d 60be 7865 00be 3554 d03d e766 80bd
00000380: dca1 1cbe a749 b03c 3914 c73d 06f7 dabd
00000390: 679a 4d3e c756 c9bb 458f 493e f0e6 1c3e
000003a0: 6e87 0d3d 1c4c 95bc 5498 683e 05f7 103d
000003b0: 01c6 fe3d 2a5c 2c3e cfa2 213e d062 6cbe
000003c0: ae91 f1ba 2a8c 22be 53dc 3f3e a02f 893c
000003d0: 4b06 8cbe be4b 46bc de09 573e 2f0f 823d
000003e0: 90c0 623d e727 b1bc a544 a03b 9348 2d3e
000003f0: 33be 4dbe d5be bcbe 8059 d4bd 9661 903d

_fc2.bias f4 [32]
0.060133785 -0.017685669 0.07030903 -0.061890066 0.050381646 0.18801787 0.10168231 -0.009064487
0.15735465 -0.18286848 -0.15182638 0.017114535 0.013132105 -0.0539328 -0.022802899 -0.097641535
-0.20225 0.1027211 0.073461436 0.09618123 0.048777174 -0.20449257 -0.14261937 -0.017203528
0.169146 -0.027912622 -0.08679497 -0.078300275 0.0031684306 -0.033596706 -0.21346132 0.2089887
00000000: d84e 763d 89e1 90bc 2efe 8f3d 7080 7dbd
00000010: fc5c 4e3d c287 403e d13e d03d 3783 14bc
00000020: 9421 213e e041 3bbe 6078 1bbe c833 8c3c
00000030: 0a28 573c a4e8 5cbd 25cd babc 49f8 c7bd
00000040: a01a 4fbe 715f d23d f372 963d aafa c43d
00000050: 93ca 473d 8066 51be d00a 12be 6aee 8cbc
00000060: 9c34 2d3e 03a9 e4bc 90c1 b1bd e55b a0bd
00000070: 72a5 4f3b b39c 09bd 9b95 5abe 2201 563e

_fc3.weight f4 [2, 32]
-0.13724017 -0.070778556 -0.058840908 -0.26488286 0.41580012 0.058483943 -0.08602341 0.12000118
0.16243 -0.3368815 0.16805674 0.2388193 0.23697901 -0.13301477 0.24795349 -0.24085926
-0.2004095 0.2686317 -0.023156429 0.12335125 0.14340603 0.019990603 -0.051044866 -0.32997635
-0.22842239 -0.204096 0.24873403 0.09944134 0.22575012 -0.3326646 0.017428175 0.030921103
0.2740686 0.64658064 -0.17162555 -0.14724724 -0.3990809 -0.12909745 0.21228512 0.096497305
0.20698309 0.13081768 0.45485002 -0.2364471 0.1307287 0.22743228 0.08579612 -0.0968958
0.15212105 0.27224353 0.22565748 0.05684017 0.5106064 -0.19007204 -0.09801935 0.20276444
-0.11503512 -0.23854087 0.36315644 -0.033727493 0.17373028 -0.4137795 0.08028195 -0.08445331
00000000: b088 0cbe 59f4 90bd 2a03 71bd ba9e 87be
00000010: c1e3 d43e dc8c 6f3d 0b2d b0bd 2ec3 f53d
00000020: 0d54 263e bb7b acbe 1117 2c3e 0c8d 743e
00000030: a0aa 723e 0635 08be 85e7 7d3e cfa3 76be
00000040: 2638 4dbe 188a 893e 8db2 bdbc 959f fc3d
00000050: 08d9 123e 55c3 a33c 6c14 51bd a9f2 a8be
00000060: 8fe7 69be 8bfe 50be 22b4 7e3e e7a7 cb3d
00000070: 0a2b 673e 0453 aabe 88c5 8e3c 414e fd3c
00000080: b852 8c3e 4f86 253f 9cbe 2fbe fbc7 16be
00000090: 5554 ccbe 1f32 04be 4561 593e 61a0 c53d
000000a0: 60f3 533e 12f5 053e 1ae2 e83e 301f 72be
000000b0: bfdd 053e 02e4 683e e0b5 af3d 4e71 c6bd
000000c0: 9fc5 1b3e 8163 8b3e c112 673e 3dd1 683d
000000d0: 1ab7 023f 3fa2 42be 5ebe c8bd 7ba1 4f3e
000000e0: 8897 ebbd 0f44 74be a4ef b93e d725 0abd
000000f0: 5ae6 313e e8da d3be dd6a a43d dbf5 acbd

_fc3.bias f4 [2]
-0.05245895 -0.053479422
00000000: 32df 56bd 3d0d 5bbd
