hw1/data/results/session_ant/checkpoint.pth (torch_old, 20710 bytes, 6 tensors)

_fc1.weight f4 [32, 111]
0	0x3e01d620	0.12679338
1	0x3e81f416	0.25381535
2	0x3d9940ac	0.07483038
3	0x3f1aa22f	0.6040372
4	0xbf626382	-0.88433087
5	0x3bd17733	0.0063923835
6	0xbf8053e8	-1.0025606
7	0xbe62f604	-0.2216416
8	0x3fa6941a	1.3013947
9	0x3d16899a	0.03675232
10	0x3ecf9b42	0.4054814
11	0xbda61d52	-0.08111061
12	0x3df5796f	0.11986052
13	0x3c040563	0.008057925
14	0xbd81b283	-0.063328765
15	0x3dfec1f9	0.12439341
16	0xbd4fbd29	-0.050717507
17	0x3e21564e	0.15755579
18	0x3cd1a3a7	0.02559073
19	0x3c11a79b	0.008890058
20	0xbd1a846e	-0.03772395
21	0xbce20397	-0.027589602
22	0xbe260b54	-0.16215259
23	0x3cc1f441	0.02367604
24	0xbcd67f72	-0.026183818
25	0x3caabefd	0.020843023
26	0xbca2aa82	-0.019856695
27	0xbdb453dc	-0.088050574
28	0xbd74bfaa	-0.059753098
29	0xbcc4d944	-0.024029382
30	0xbd178b66	-0.036998175
31	0x3da7f375	0.082007326
32	0xbd7bff02	-0.06152249
33	0xbdf1e6e7	-0.11811619
34	0xbd64bc02	-0.05584336
35	0xbffdb199	-1.9819824
36	0xbed747be	-0.42046922
37	0xbe05e27d	-0.1307468
38	0xbed450b5	-0.41467825
39	0x3d3c6dba	0.04600308
40	0x3ba39200	0.00499177
41	0xbd47518f	-0.048661765
42	0x3c838cb0	0.016058296
43	0xbdb57fa7	-0.088622384
44	0xbd8c7538	-0.06858295
45	0xbfbe1b8c	-1.4852157
46	0xbf0cff7c	-0.5507734
47	0x3f178dc5	0.592007
48	0xbecb4791	-0.39703038
49	0xbc9b05a5	-0.01892359
50	0x3e9b926b	0.30385146
51	0xbdd3c9b8	-0.10341209
52	0x3e90fb2b	0.28316626
53	0x3f018db7	0.50606865
54	0x3f36e4ac	0.71442676
55	0x3e8069f9	0.2508085
56	0xbdd6ac63	-0.10482099
57	0xbd96b5b2	-0.073588744
58	0xbd86ba32	-0.06578483
59	0xbd48d5b8	-0.049031943
60	0x3d2fe906	0.042946838
61	0x3d1c5996	0.038171373
62	0xbd664abb	-0.056223612
63	0xc00f41f7	-2.2384012
64	0x3fb4b897	1.4118832
65	0x3f02089f	0.50794405
66	0xc00cac5f	-2.1980207
67	0xbfc6713d	-1.5503308
68	0xc00619f8	-2.095335
69	0x3fb00add	1.3753315
70	0xbf421542	-0.75813687
71	0x3f10f698	0.5662627
72	0xbf92beb9	-1.1464454
73	0xbebdfe28	-0.37107968
74	0xbeb62bb1	-0.3558021
75	0x3dab84e9	0.0837496
76	0x3c9abe6c	0.018889628
77	0xbda9093a	-0.08253713
78	0x3c0f0ec0	0.008731544
79	0xbd733844	-0.05937983
80	0xbdb52909	-0.088457175
81	0xbeb1149d	-0.3458604
82	0xbf03eb3a	-0.515308
83	0x3fddd39b	1.7330202
84	0x3f5064db	0.81403893
85	0x3eb80576	0.35941666
86	0x3e75b68c	0.23995417
87	0xbeb27d01	-0.34860995
88	0x3e0ced3b	0.13762371
89	0x3f0a5780	0.54039764
90	0x3d408c88	0.04700902
91	0x3e6ca3d2	0.23109367
92	0xbe57d646	-0.21077833
93	0x3d115e0a	0.035490073
94	0xbdc06468	-0.09394151
95	0xbd7c327d	-0.061571587
96	0x3d421f0a	0.047392882
97	0x3ca2be08	0.019866005
98	0xbd97a37d	-0.0740423
99	0x3f958f05	1.1684271
100	0xbe6eca05	-0.23319252
101	0xbf31f5ba	-0.69515574
102	0xbe06bf29	-0.1315886
103	0xbf91d728	-1.1393785
104	0x3e97e49e	0.2966661
105	0xbfa5757e	-1.2926481
106	0xbf4d4a33	-0.80191344
107	0xbf2ca9ca	-0.6744658
108	0xbf1908bf	-0.5977897
109	0x3f682446	0.9068035
110	0xbf8a69ed	-1.0813576
111	0xbf0aa2c5	-0.54154617
112	0xbea5932e	-0.32338852
113	0x3ea7c61a	0.32768327
114	0xbe3bfbfa	-0.1835784
115	0x3e161f54	0.14660388
116	0xbea1be79	-0.31590632
117	0xbf728755	-0.9473775
118	0x3e095fa8	0.13415396
119	0xbe81562a	-0.2526105
120	0x3ef5bdba	0.47996312
121	0xbf9b88ab	-1.2151083
122	0x3e31b63e	0.17354676
123	0x3f072fc1	0.5280724
124	0xbddbca5f	-0.107319586
125	0xbd13fcf3	-0.036129903
126	0xbeb13bc8	-0.34615922
127	0xbe1c407c	-0.15258974
128	0x3d0e2915	0.034707148
129	0x3c1063b9	0.008812838
130	0xbd3e3fb9	-0.04644749
131	0xbd5fdc4f	-0.054653462
132	0x3ca90912	0.020634208
133	0xbe667ca9	-0.22508492
134	0xbbf77a55	-0.007552425
135	0xbc73d272	-0.014881717
136	0x3a02d0c9	0.0004990218
137	0x3d9222e9	0.07135565
138	0x3c9d5c98	0.019209191
139	0x3d7732d6	0.060351215
140	0x3db82205	0.08990864
141	0x3d76e4da	0.060276844
142	0x3db88ddf	0.09011435
143	0xbbe0ef50	-0.006864466
144	0xbe99e829	-0.30059937
145	0xbf8a1c81	-1.0789949
146	0xbfa5c791	-1.2951528
147	0xbf6aa580	-0.9165878
148	0x3f056331	0.5210448
149	0x3f167f26	0.58787763
150	0xbdb5eb02	-0.08882715
151	0xbda41090	-0.080109715
152	0xbc9db73c	-0.019252412
153	0x3d5534e6	0.0520524
154	0x3d523012	0.051315375
155	0xbdbb793b	-0.09153982
156	0x3f8994ee	1.0748575
157	0x3fac8a12	1.3479636
158	0xbf3d2e4c	-0.7389877
159	0x3ef82996	0.48469228
160	0x40033857	2.0503137
161	0xbfc2e917	-1.5227383
162	0x3df74d18	0.12075251
163	0xbe44a673	-0.1920412
164	0x3c5d10b7	0.013492755
165	0xbf4af243	-0.7927591
166	0xbda4e031	-0.080505736
167	0xbdc263ec	-0.09491715
168	0xbdaef5cc	-0.08542976
169	0xbbd1e620	-0.006405607
170	0x3daaf2bd	0.0834708
171	0xbd1e9409	-0.038715396
172	0x3daf8857	0.08570927
173	0x3d0ccbde	0.03437411
174	0x3fc35bc5	1.5262381
175	0xbf9d999a	-1.23125
176	0xbff5a9c9	-1.9192439
177	0x401b39a9	2.4253943
178	0xbfa0380e	-1.2517107
179	0xbe3e6b4c	-0.18595618
180	0x3f1ed90a	0.62049925
181	0xbed5b28d	-0.41737786
182	0x3c282a1f	0.010263949
183	0x3e61bc79	0.22044553
184	0xbd346833	-0.044044685
185	0xbf1dae63	-0.6159422
186	0xbcbafb2c	-0.022824846
187	0xbca385e8	-0.019961312
188	0xbda030f1	-0.07821835
189	0x3d52a7ce	0.051429562
190	0x3d9a56e7	0.075361066
191	0x3d85013b	0.06494375
192	0xbf52d705	-0.82359344
193	0x3f6ea12e	0.9321469
194	0xbf49c619	-0.788179
195	0x3f646831	0.89221483
196	0xbfdc09fc	-1.7190547
197	0x3f5bbd65	0.8583587
198	0x3ffa411a	1.9551117
199	0xbd831ab3	-0.06401577
200	0x3e86b300	0.2630844
201	0xbd02fc2b	-0.031978767
202	0xbf899ed2	-1.0751593
203	0x3d1a7372	0.037707753
204	0xbd61bf2b	-0.055113953
205	0x3d880eef	0.06643473
206	0xbd0bc045	-0.03411891
207	0x3da3f6b5	0.0800604
208	0x3d0c9582	0.03432227
209	0x3c44ea88	0.012018807
210	0x3f70cf18	0.94066
211	0x3f3fcbaa	0.7492014
212	0x3f46bdc7	0.7763333
213	0x3f989bb6	1.1922519
214	0x3e3dd167	0.18536912
215	0x3e0dfc26	0.13865718
216	0xbe8191d6	-0.25306576
217	0x3e94790b	0.28998598
218	0x3ef9b836	0.48773354
219	0xbd93514d	-0.07193241
220	0x3e4ed973	0.20200138
221	0x3f49d2a2	0.78837025
222	0xbfd6d256	-1.678294
223	0xbf8cd083	-1.1001133
224	0xbf032cd7	-0.51240295
225	0xbf497999	-0.7870117
226	0x3e04e013	0.12976103
227	0x3cf161c6	0.029465567
228	0x3ee71a96	0.4513747
229	0x3c5c67da	0.0134524945
230	0xbf0d4ed7	-0.55198425
231	0x3e87c65a	0.26518518
232	0xbf1fd400	-0.6243286
233	0xbe45db7e	-0.19322011
234	0x3e2c1583	0.16805081
235	0xbc3244f7	-0.0108807
236	0xbdf7a58d	-0.12092123
237	0xbf20591d	-0.62635976
238	0xbe4fc4f8	-0.20289981
239	0xbe2f2c43	-0.17106728
240	0xbc098d2b	-0.0083954735
241	0x3c4d2fb3	0.012523579
242	0x3c9f1484	0.019418962
243	0x3c8eeb10	0.01744607
244	0xbe1b8f92	-0.15191486
245	0xbd875480	-0.06607914
246	0x3c4b9cd2	0.012427526
247	0x3ce25561	0.027628602
248	0xbd7d420e	-0.061830573
249	0xbc843254	-0.01613728
250	0xbd4cc1e1	-0.049989585
251	0x3c4d8a08	0.012545116
252	0x3da0be23	0.07848766
253	0xbce34b0c	-0.027745746
254	0xbd66d041	-0.05635095
255	0xbf884449	-1.0645839

_fc1.bias f4 [32]
0	0x3f8b9758	1.0905561
1	0x3f058a57	0.52164215
2	0x3e8d6e5a	0.27623254
3	0x3f854e33	1.041449
4	0xbdac048a	-0.08399303
5	0xbf4edf1a	-0.80809176
6	0xbf3e0bed	-0.7423695
7	0xbf35af54	-0.70970654
8	0xbfbc892d	-1.4729363
9	0x3f06b11a	0.52613986
10	0x3fc946e0	1.5724754
11	0x3f041161	0.5158902
12	0x3e813ad1	0.25240186
13	0xbe8d0ece	-0.27550358
14	0x3f5cd5d1	0.8626376
15	0x3f014169	0.5049043
16	0x3f777d4d	0.9667557
17	0xbe4a3f1f	-0.19750641
18	0xbdc5f3b4	-0.09665623
19	0x3fb5ee32	1.4213316
20	0xbeea532a	-0.45766574
21	0x3e1b7a9e	0.15183493
22	0xbe129500	-0.14314651
23	0x3f8128fe	1.0090635
24	0x3c291f58	0.010322414
25	0xbf6c55a2	-0.92318165
26	0x3e6240d5	0.22095044
27	0x3f63acd4	0.8893559
28	0x3f824de2	1.0180018
29	0x3c8586f3	0.0162997
30	0xbdbbc06c	-0.09167561
31	0xbf0375ad	-0.51351434

_fc2.weight f4 [32, 32]
0	0xbccb83ec	-0.024843179
1	0xbe9ac74e	-0.30230182
2	0x3e4f1756	0.20223746
3	0xbdcf1ab9	-0.10112519
4	0x3e0c2cc1	0.13688947
5	0x3d72a3d6	0.059238277
6	0xbc915756	-0.01774184
7	0xbcae4902	-0.021275047
8	0xbdf8dae8	-0.12151128
9	0xbe5e8541	-0.2173052
10	0x3d1006ac	0.035162613
11	0xbe8a006c	-0.26953447
12	0xbe83d4c8	-0.25748277
13	0x3f104946	0.56361806
14	0xbe9bf651	-0.30461362
15	0xbae13d2a	-0.0017184366
16	0xbe8bba65	-0.27290645
17	0xbe0cf60e	-0.13765737
18	0x3d2d1ca5	0.042263646
19	0xbb2f328a	-0.0026733004
20	0xbd959458	-0.07303685
21	0x3e574fc7	0.21026526
22	0x3cdcda5a	0.026959587
23	0x3e37f3a3	0.17964034
24	0xbe3464e5	-0.17616613
25	0xbe4b12f0	-0.19831443
26	0x3b1bf4d6	0.0023797057
27	0x3d909a07	0.070606284
28	0xbc838f2b	-0.016059479
29	0x3d279879	0.040916894
30	0x3cbb421f	0.022858677
31	0x3d2a9b72	0.04165215
32	0x3ddca08b	0.10772809
33	0x3cb19772	0.02167866
34	0xbe038f3f	-0.12847613
35	0x3f3e9917	0.74452347
36	0x3d0e5b2b	0.034754913
37	0xbec3ed91	-0.38267186
38	0x3d089496	0.033344828
39	0xbe79dee1	-0.24401428
40	0xbe4ccf34	-0.20000917
41	0x3e06a27d	0.13147922
42	0x3ef09b9b	0.46993718
43	0x3e7a8a69	0.24466862
44	0x3e531d9b	0.20616762
45	0x3df9f17f	0.12204265
46	0x3da2b9fc	0.0794563
47	0x3d89f71e	0.06736587
48	0x3e1e1d93	0.15440969
49	0x3c308b57	0.010775409
50	0x3ddc3bb6	0.107535765
51	0xbea365c3	-0.31913576
52	0xbe570901	-0.20999528
53	0xbc34e451	-0.011040763
54	0x3c0d42ed	0.008621913
55	0x3eb81a0b	0.3595737
56	0x3e4daabb	0.2008466
57	0xbe11b286	-0.14228258
58	0xbd729e78	-0.05923316
59	0x3d146803	0.036232006
60	0xbd159862	-0.036522277
61	0x3e151c2c	0.14561528
62	0x3c2ec8a0	0.01066795
63	0xbf21e8fc	-0.6324613
64	0x3e258cf8	0.16167057
65	0xbe03ce2e	-0.1287162
66	0xbe33a410	-0.17543054
67	0xbec71d71	-0.3888965
68	0x3ecaccee	0.39609474
69	0xbe4a204d	-0.19738884
70	0x3ad54be0	0.0016273223
71	0x3ea4108c	0.32043874
72	0x3e2c734c	0.16840857
73	0xbe3f17a7	-0.18661366
74	0x3da0b2a8	0.07846576
75	0x3d2619a0	0.04055178
76	0x3dcf9edd	0.10137723
77	0xbcb1728e	-0.02166107
78	0x3e5d7a78	0.2162875
79	0xbe02aaf2	-0.12760523
80	0x3c74827e	0.01492369
81	0x3e695972	0.22788027
82	0xbd6fc8df	-0.058541175
83	0x3e22bbc1	0.15891935
84	0xbecf7e83	-0.40526208
85	0xbe30b5fa	-0.17256919
86	0x3df18015	0.11792008
87	0x3dd418d2	0.103562966
88	0xbc554e95	-0.013019224
89	0x3e8e989b	0.27850804
90	0xbe62f6b8	-0.22164428
91	0x3ccb18c7	0.024792088
92	0x3d623196	0.05522307
93	0x3cc15cc2	0.0236038
94	0xbdfe4d1b	-0.124170505
95	0x3da0047f	0.078133576
96	0x3b796738	0.0038055908
97	0x3e0bc3a5	0.13648851
98	0x3d8b23d0	0.0679394
99	0xbeb11469	-0.34585884
100	0xbcb07934	-0.02154217
101	0xbe7d1a51	-0.2471707
102	0x3d8458b2	0.0646223
103	0x3c4c9e66	0.012488937
104	0x3e840fa6	0.2579319
105	0x3d0f00b3	0.034912776
106	0xbe09c4a0	-0.13453913
107	0xbdd507c2	-0.1040187
108	0x3d6d593b	0.057946425
109	0x3e82b23f	0.25526616
110	0x3e8b1a2e	0.2716841
111	0x3e49e7b5	0.19717295
112	0xbc497dcb	-0.012298058
113	0x3e08888c	0.13333338
114	0x3e8e2354	0.27761328
115	0x3bf3a20f	0.0074350904
116	0xbe21c1b8	-0.15796554
117	0xbedb8847	-0.4287741
118	0xbd981ce1	-0.07427383
119	0xbbda0c07	-0.006654266
120	0x3e905366	0.28188628
121	0x3ebd1986	0.36933535
122	0x3e4196f1	0.18905236
123	0xbdca2113	-0.0986959
124	0x3e87aae4	0.26497567
125	0x3ec638fb	0.38715348
126	0xbccc95dd	-0.024973804
127	0x3e683dbb	0.22679798
128	0x3e2bccae	0.16777298
129	0xbe0ef123	-0.13959174
130	0xbdcfa1a5	-0.10138253
131	0xbe0d7162	-0.13812783
132	0xbdf87c59	-0.121330924
133	0xbea4a1d0	-0.32154703
134	0xbe312fe1	-0.1730342
135	0xbe18b04c	-0.14911002
136	0xbccb04f7	-0.02478264
137	0x3ec6265f	0.3870115
138	0x3c3e6a2d	0.011621994
139	0xbcd7a532	-0.026323888
140	0xbd131deb	-0.035917204
141	0xbe168e41	-0.14702703
142	0x3d3cd610	0.046102583
143	0xbdc7a59a	-0.09748383
144	0x3e478d58	0.19487512
145	0xbe8de40f	-0.27713057
146	0xbd050be3	-0.03248204
147	0x3dd2fb05	0.103017844
148	0x3dda900b	0.10672005
149	0xbe1903a4	-0.14942795
150	0xbdfa6b30	-0.12227476
151	0x3c61e290	0.013786927
152	0xbe2337c4	-0.15939242
153	0xbcabe7c9	-0.020984547
154	0x3e995598	0.29948115
155	0xbe0db636	-0.13839039
156	0x3e2b2320	0.16712618
157	0x3dbd3f17	0.09240549
158	0xbe14a503	-0.14516072
159	0xbe95256b	-0.2913011
160	0x3e6a79c6	0.22898015
161	0xbe2724e9	-0.16322674
162	0xbd5a53c5	-0.053302545
163	0xbe15cefe	-0.14629743
164	0x3d96d04e	0.0736395
165	0xbf909e25	-1.1298262
166	0xbde0f075	-0.109833635
167	0xbec96997	-0.3933837
168	0xbd4b2064	-0.049591437
169	0x3e96ceff	0.294548
170	0x3eb9451f	0.36185548
171	0xbe6397b7	-0.22225843
172	0xbe871c68	-0.2638886
173	0x3e3f3acc	0.18674773
174	0x3d5a4afc	0.053294167
175	0x3d69db05	0.05709364
176	0xbe63e0f3	-0.2225378
177	0x3e7f1ac1	0.2491255
178	0xbb37a686	-0.002802284
179	0x3e6bf8ad	0.23044081
180	0x3e884e52	0.26622254
181	0x3e64be38	0.22338188
182	0x3df64966	0.120257184
183	0x3d3176e3	0.04332627
184	0x3db62250	0.08893263
185	0xbdca570d	-0.09879885
186	0x3e25cb68	0.16190875
187	0x3e156de9	0.14592709
188	0xbe9fa5a8	-0.31181073
189	0xbe26f4c0	-0.16304302
190	0xbc4d4cf1	-0.012530551
191	0xbcceb06c	-0.025230609
192	0x3da7b984	0.08189681
193	0x3db523c8	0.08844715
194	0xbd21d0c3	-0.03950573
195	0x3daeffde	0.085448965
196	0xbe8f2c6d	-0.27963582
197	0x3e43954f	0.19099925
198	0xbde72578	-0.112864435
199	0xbdafce5b	-0.08584281
200	0xbe95b4af	-0.29239413
201	0xbe30b92d	-0.17258139
202	0x3e14bb6c	0.14524621
203	0xbe06ec33	-0.1317604
204	0x3dab53b4	0.083655745
205	0xbcffcd26	-0.031225752
206	0x3eae7438	0.34073043
207	0xbebfb0e3	-0.3743964
208	0xbe283ff6	-0.16430649
209	0x3da39e1b	0.079891406
210	0xbec51b12	-0.38497216
211	0x3f2ccdab	0.67501324
212	0x3e2cd104	0.16876608
213	0x3e00c1b0	0.12573886
214	0xbbc19dbd	-0.0059086964
215	0x3e818473	0.25296363
216	0xbd8fe99d	-0.0702698
217	0xbdd2d005	-0.10293583
218	0x3d9ed8a8	0.07756168
219	0x3e659755	0.2242101
220	0x3d891847	0.06694084
221	0x3e748463	0.23878627
222	0xbed263c1	-0.4109173
223	0x3ee15761	0.44011977
224	0xbea6a5f2	-0.3254848
225	0x3d96952d	0.07352672
226	0x3f38f785	0.72252685
227	0x3dde6818	0.10859698
228	0xbd23103c	-0.039810404
229	0xbe1e8495	-0.15480264
230	0x3e855a9e	0.26045698
231	0xbe7ff6e0	-0.24996519
232	0x3d3a3ce7	0.045468237
233	0xbebcfb36	-0.3691041
234	0xbe238e2f	-0.15972207
235	0x3ba34d32	0.0049835676
236	0x3e6e4c1b	0.2327122
237	0x3ea3f9a3	0.32026395
238	0x3e91311e	0.28357786
239	0xbbfbaccc	-0.007680511
240	0x3eb41f01	0.35179904
241	0xbccbfe98	-0.024901673
242	0xbe83b51d	-0.25724116
243	0x3e7948b8	0.24344146
244	0xbf2b73ac	-0.66973376
245	0xbd9615d1	-0.0732838
246	0xbe1ccc81	-0.15312387
247	0x3db4c567	0.08826714
248	0xbefd8745	-0.49517265
249	0x3e82a93e	0.25519747
250	0xbe842cf1	-0.25815538
251	0xbeb47c63	-0.3525115
252	0xbe1b1aba	-0.15146914
253	0x3c7bfc29	0.015379944
254	0x3e114217	0.14185368
255	0xbe8873e4	-0.26650918

_fc2.bias f4 [32]
0	0x3f93e698	1.1554747
1	0x3ea61bc9	0.32443073
2	0x3aae9c51	0.0013321732
3	0xbe3c5685	-0.1839238
4	0x3fd0c79f	1.631092
5	0x3e286c4b	0.1644756
6	0x3eb98c30	0.36239767
7	0x3f52dc21	0.8236714
8	0xbf24a7cc	-0.6431854
9	0x3ec52e4c	0.38511884
10	0xbf438d4d	-0.7638748
11	0xb9c43f1c	-0.00037431053
12	0x3f4ac98d	0.7921379
13	0x3f81a939	1.0129768
14	0xbecbff27	-0.39843103
15	0x3f173e62	0.59079564
16	0x3f184c75	0.59491664
17	0xbe4996a0	-0.19686365
18	0xbf0f3028	-0.55932856
19	0x3ef6f01a	0.48230058
20	0xbee6db9a	-0.45089418
21	0x3ea8ea09	0.32991055
22	0x3f0ffcd0	0.56245136
23	0x3cb47d1c	0.022032313
24	0x3fc02130	1.5010128
25	0x3f5af421	0.8552876
26	0x3d930d7a	0.07180305
27	0xbec23639	-0.37931994
28	0x3f26fdae	0.65230834
29	0x3efcf3c1	0.4940472
30	0x3ebeeb08	0.3728869
31	0x3f1a0b8e	0.6017388

_fc3.weight f4 [8, 32]
0	0x3d9f40af	0.07776009
1	0x3cc39316	0.023873847
2	0x3e127fda	0.14306584
3	0x3e1f89b4	0.15579873
4	0x3ca22eeb	0.019797763
5	0xbd089743	-0.03334738
6	0x3d1eea01	0.038797382
7	0xbd32fa7b	-0.043695908
8	0x3d952493	0.072823666
9	0x3e0654e2	0.13118318
10	0x3d14b7dc	0.036308154
11	0x3c87dc4b	0.016584536
12	0x3d1c75d8	0.038198322
13	0xbe103de3	-0.14086108
14	0xbbcfd8e9	-0.0063429964
15	0xbe1d895f	-0.15384434
16	0xbdc07a33	-0.09398308
17	0xbd262437	-0.04056188
18	0xbd24fb3a	-0.04027865
19	0x3cc0cdb3	0.023535585
20	0xbd9b3966	-0.07579307
21	0xbbce15ef	-0.006289236
22	0xbdc8f4f3	-0.09812345
23	0xbd4ea46b	-0.05044977
24	0xbd3437d4	-0.043998554
25	0xbd83798e	-0.06419669
26	0x3dd5daa5	0.10442094
27	0xbe1f0381	-0.1552868
28	0x3d81edb7	0.06344169
29	0x3d4b095d	0.049569476
30	0xbd265117	-0.040604677
31	0x3dd1184d	0.10209713
32	0xbd89e09a	-0.067322925
33	0xbe5ced84	-0.2157498
34	0xbd724264	-0.059145346
35	0x3bff0640	0.0077827275
36	0x3e482b2d	0.1954772
37	0xbd24a655	-0.04019769
38	0xbdf57555	-0.1198527
39	0x3c9632cb	0.018334767
40	0x3da5c924	0.08095005
41	0xbd77c941	-0.060494665
42	0xbdc60d9c	-0.096705645
43	0x3daee5fc	0.0853996
44	0xbd5456ce	-0.051840596
45	0x3d197ed4	0.03747447
46	0x3dd8a4ca	0.10578306
47	0x3d86d3a4	0.06583336
48	0x3d93cd6a	0.07216914
49	0x3d2ba22c	0.041902706
50	0xbd7b2488	-0.061314136
51	0x3dc6cfe0	0.09707618
52	0xbd706654	-0.058691338
53	0xbd99a701	-0.075025566
54	0x3c940f98	0.018073842
55	0xbdb3feef	-0.08788859
56	0xbd2dbbac	-0.042415306
57	0xbcdeb418	-0.027185485
58	0xbca39fb5	-0.019973615
59	0xbe10bb08	-0.14133847
60	0x3e3ddd38	0.1854142
61	0xbd50f478	-0.051014394
62	0x3e26404d	0.16235466
63	0x3cdbf7d6	0.026851576
64	0xbe15a0bf	-0.14612101
65	0x3e0d995c	0.13828033
66	0x3d5e890a	0.05432991
67	0xbd16322e	-0.03666895
68	0x3d90c344	0.07068494
69	0x3de1fc73	0.11034479
70	0xbddfaa80	-0.10921192
71	0x3bcd7df1	0.006271117
72	0x3d8dc0ca	0.06921537
73	0x3cc00b09	0.023442762
74	0x3dc8ac0b	0.097984396
75	0xbd081d94	-0.033231333
76	0xbe0c225c	-0.13684982
77	0x3e218b26	0.15775737
78	0xbdda1d50	-0.10650122
79	0xbdc7a027	-0.097473435
80	0x3e0bd77c	0.1365642
81	0xbd78aa8a	-0.060709514
82	0xbc238e6c	-0.0099826865
83	0xbdc4fed3	-0.09618916
84	0x3dc4efba	0.09616037
85	0xbb27762d	-0.0025552616
86	0x3de5eedd	0.112272
87	0xbccd14e3	-0.025034374
88	0xbda87037	-0.08224528
89	0x3d05532f	0.032550033
90	0xbdc2931d	-0.09500716
91	0xbd18212f	-0.03714102
92	0xbe0cc14c	-0.13745612
93	0xbe25dee0	-0.16198301
94	0xbd6a075d	-0.05713593
95	0x3dd8d77c	0.105879754
96	0xbbcf54f7	-0.0063272673
97	0xbd4bbf50	-0.049742997
98	0xbd8e50f8	-0.06949037
99	0xbdd7c648	-0.10535866
100	0x3db44c3e	0.088036045
101	0x3d45d342	0.048297174
102	0x3d8f0c63	0.069847845
103	0x3dc73a3f	0.097279064
104	0xbe82b9f6	-0.25532502
105	0xbce8863d	-0.028384322
106	0xbc8ae020	-0.016952574
107	0x3d62cc15	0.05537041
108	0xbaa286ea	-0.0012399827
109	0xbce5b52d	-0.028040493
110	0xbdacff4b	-0.08447131
111	0x3d3c935b	0.046038967
112	0x3dc93e9d	0.09826396
113	0xbd60055e	-0.05469262
114	0x3ddf71ef	0.10910403
115	0x3d9a1093	0.075226925
116	0xbd1c6a79	-0.038187478
117	0x3de68f3f	0.11257791
118	0x3d030a45	0.031992216
119	0xbdab8ecb	-0.08376845
120	0x3d66fe34	0.05639477
121	0x3e463bb1	0.19358708
122	0x3db73ae1	0.08946777
123	0xbe1e3a8a	-0.15452018
124	0x3dddab5a	0.10823698
125	0xbd1ebd75	-0.0387549
126	0x3dbc5a8c	0.09196958
127	0x3d8660a6	0.06561403
128	0xbdfbb02d	-0.12289462
129	0x3d6078ae	0.05480259
130	0x3be5d6ba	0.007014123
131	0x3da3e0d6	0.080018684
132	0x3d551e6c	0.052030966
133	0x3d475eec	0.04867451
134	0x3d56aa6b	0.052408617
135	0xbce6688d	-0.028126026
136	0xbdd7508b	-0.10513409
137	0x3cf9560c	0.030436538
138	0x3ddf847f	0.109139435
139	0xbd1e3442	-0.038624056
140	0xbde2703f	-0.110565655
141	0xbde0f895	-0.10984913
142	0xbd5403a6	-0.051761292
143	0xbb8ceac3	-0.0043004467
144	0xbd9fa9d9	-0.07796068
145	0x3e096a12	0.13419369
146	0xbce51bd4	-0.027967371
147	0x3cc49fba	0.024001945
148	0x3d0fb13c	0.035081133
149	0x3e22048e	0.1582205
150	0x3dcf78f3	0.10130491
151	0xbd9568aa	-0.07295354
152	0x3d652ee0	0.055952907
153	0x3d395dbe	0.045255415
154	0xbd95842d	-0.07300601
155	0xbdb81117	-0.08987635
156	0xbdb4c170	-0.08825958
157	0x3d298a53	0.041391682
158	0xbc6b34ab	-0.014355819
159	0xbd92dbd1	-0.07170833
160	0x3d4947b6	0.049140655
161	0x3d6b1b93	0.057399344
162	0x3d61fa81	0.05517054
163	0x3cd557b0	0.02604279
164	0x3d0283a7	0.031863835
165	0xbd08b0c0	-0.033371687
166	0x3c7ebcb1	0.015547917
167	0xbd8a456e	-0.06751524
168	0x3db7c238	0.08972591
169	0x3bb9db34	0.005671883
170	0xbcef69e3	-0.029225295
171	0xbccb32b2	-0.024804447
172	0x3d190bfb	0.03736494
173	0xbcd8310c	-0.026390575
174	0xbd564ce3	-0.05231942
175	0xbccbc8bc	-0.024875991
176	0xbdfeb7ec	-0.12437424
177	0xbbd79d3a	-0.006580022
178	0x3ca69ba9	0.020337896
179	0xbc704bc8	-0.014666505
180	0xbd93623c	-0.07196471
181	0xbcc1aa57	-0.023640795
182	0xbc5f55c7	-0.013631291
183	0xbc7ac4b9	-0.015305691
184	0x3c402c19	0.011729264
185	0x3e601ad1	0.2188523
186	0x3d36477b	0.044501763
187	0x3c8adfb1	0.016952367
188	0x3d44e892	0.04807336
189	0x3cc29b01	0.023755552
190	0xbd66ecba	-0.056378104
191	0x3c3ba3f2	0.011452662
192	0x3de4901c	0.11160299
193	0xbde2d0dc	-0.11074993
194	0xbd6aec21	-0.057354096
195	0x3d7c7f6e	0.061644964
196	0xbe072f94	-0.13201743
197	0xbd9e643c	-0.07733962
198	0xbd9703e8	-0.07373792
199	0x3e1ec5df	0.1550517
200	0xbda3206f	-0.079651706
201	0xbdeffac3	-0.11717751
202	0xbd67b09f	-0.056564923
203	0x3e0c9864	0.13730007
204	0xbdc3d015	-0.09561173
205	0xbd29c8a5	-0.041451115
206	0x3dc7cb9a	0.09755631
207	0x3de3aec3	0.111173175
208	0xbd8d341d	-0.068947054
209	0xbe15dee1	-0.14635803
210	0x3d8d412f	0.068971984
211	0x3d8dcf50	0.06924307
212	0x3e0e700e	0.13909933
213	0xbc602ad1	-0.013682083
214	0xbd2540fb	-0.040345173
215	0x3d8594f0	0.06522548
216	0xbe04b526	-0.12959728
217	0x3c4d9df1	0.012549863
218	0xbc3daf5f	-0.011577456
219	0x3caee6af	0.021350233
220	0xbd6cc65c	-0.057806358
221	0x3de19f18	0.11016673
222	0x3dc7bdf0	0.097530246
223	0x3ccc2765	0.024921129
224	0x3d0dbf11	0.034606043
225	0x3c966624	0.018359251
226	0xbe08edd5	-0.13371976
227	0x3d5738a2	0.052544244
228	0x3d1c9c45	0.038234968
229	0x3d7ca3e4	0.061679736
230	0x3d04f354	0.03245862
231	0xbd4df7df	-0.050285216
232	0x3dc1e965	0.094683446
233	0x3d88692c	0.06660685
234	0xbb803d5d	-0.003913565
235	0xbccf9c83	-0.025343185
236	0x3dfb92ed	0.12283883
237	0xbcf3e80f	-0.02977374
238	0xbd8af5cc	-0.06785163
239	0xbd999684	-0.07499412
240	0x3dc29178	0.09500402
241	0x3d6e3015	0.058151323
242	0xbd7024c3	-0.05862881
243	0xbb98c793	-0.004662463
244	0x3de3aeca	0.11117323
245	0xbc8c0014	-0.017089881
246	0xbda6c1d8	-0.081424415
247	0xbda71d99	-0.08159942
248	0xbc83b795	-0.01607875
249	0xbcf65f83	-0.03007484
250	0x3c520618	0.012818836
251	0xbcc405e9	-0.0239286
252	0xbdf4023b	-0.11914488
253	0x3c3fa1f7	0.01169633
254	0xbd207fac	-0.039184257
255	0xbc830ce7	-0.015997363

_fc3.bias f4 [8]
0	0x3e28a74a	0.16470066
1	0xbd8b66d8	-0.06806725
2	0x3dc85d9e	0.09783481
3	0xbcb3066c	-0.021853648
4	0x3d970090	0.07373154
5	0xbbbc683f	-0.005749732
6	0x3e89bf0a	0.26903564
7	0x3e2d0585	0.16896637
