hw1/data/results/session_ant/checkpoint.pth (torch_old, 20710 bytes, 6 tensors)

_fc1.weight f4 [32, 111]
000000 cc 88 9d 3d db 10 cf 3e b5 cb fe bd c8 14 32 3f
       0.076921076 0.40442547 -0.12441198 0.6956296
000010 a5 c5 69 bf b0 57 f4 ba d1 e0 82 bf 82 e2 93 be
       -0.91317207 -0.0018641856 -1.0224859 -0.2888375
000020 49 c1 dd 3f df 23 82 3d 3e 12 09 3f 65 ac af bd
       1.7324611 0.06354498 0.5354346 -0.085778035
000030 7d 34 23 3e 04 0e 92 3c 61 f6 73 bd a0 c5 0c 3e
       0.15937991 0.017828949 -0.059561137 0.13747263
000040 15 ec 5b bd bc 7d 25 3e 76 50 29 3d 33 b1 05 3c
       -0.053691942 0.16161245 0.0413365 0.008159923
000050 03 4e 4f bd 1b ab 36 bd 27 5a 00 be 5f b9 c7 3c
       -0.050611507 -0.044596773 -0.1253439 0.024380384
000060 8c b7 8d bb ec bd af 3c 88 73 ae bc dc 53 b4 bd
       -0.004324859 0.021452866 -0.021295324 -0.088050574
000070 aa bf 74 bd 44 d9 c4 bc 66 8b 17 bd 75 f3 a7 3d
       -0.059753098 -0.024029382 -0.036998175 0.082007326
000080 02 ff 7b bd f0 02 79 3e 7c d7 7a 3e 9b 08 64 c0
       -0.06152249 0.24317527 0.24496263 -3.5630252
000090 38 33 54 bf ec 98 8c bf 36 6f 36 3e ba 6d 3c 3d
       -0.82890654 -1.0984168 0.17815861 0.04600308
0000a0 00 92 a3 3b 8f 51 47 bd b0 8c 83 3c a7 7f b5 bd
       0.00499177 -0.048661765 0.016058296 -0.088622384
0000b0 38 75 8c bd 44 45 01 c0 e8 4c 13 be cf e3 b3 be
       -0.06858295 -2.0198526 -0.14384806 -0.35134742
0000c0 51 19 6c be 22 2c c0 3d 04 22 50 be 53 b0 c3 bd
       -0.23056532 0.09383418 -0.20325476 -0.095551156
0000d0 66 bb 8e 3e 19 43 27 3f 0c 0c 29 3f f7 1a 3e 3e
       0.2787735 0.6533676 0.6603401 0.18564974
0000e0 22 98 05 bd b2 b5 96 bd 32 ba 86 bd b8 d5 48 bd
       -0.03261579 -0.073588744 -0.06578483 -0.049031943
0000f0 06 e9 2f 3d 96 59 1c 3d bb 4a 66 bd 3d 87 3d c0
       0.042946838 0.038171373 -0.056223612 -2.9613793
000100 5c 62 b6 3f 4b c6 8d 3f 7c 3b 0d c0 41 cb 0f c0
       1.4248767 1.1076139 -2.2067556 -2.2467806
000110 30 e0 06 c0 2e 7b b7 3f 9b 0e 56 bf 81 20 16 3f
       -2.1074333 1.4334466 -0.83616036 0.5864335
000120 ac 7f a6 bf eb 39 cd be 40 ee be be e9 84 ab 3d
       -1.3007712 -0.4008325 -0.37291145 0.0837496
000130 6c be 9a 3c 3a 09 a9 bd c0 0e 0f 3c 44 38 73 bd
       0.018889628 -0.08253713 0.008731544 -0.05937983
000140 09 29 b5 bd 6b 75 ae be 12 3a 21 bf 4a f3 50 40
       -0.088457175 -0.34073958 -0.62979233 3.2648492
000150 f0 18 9c 3f a0 fb 9d 3e 4f 11 87 3e 96 85 cf be
       1.219511 0.30856037 0.26380393 -0.40531605
000160 0f 65 0d 3e ea 79 1a 3f 40 c0 90 3c 34 d4 99 3e
       0.13808082 0.60342276 0.017669797 0.3004471
000170 79 c9 7a be 0a 5e 11 3d 68 64 c0 bd 7d 32 7c bd
       -0.24490918 0.035490073 -0.09394151 -0.061571587
000180 0a 1f 42 3d 08 be a2 3c 7d a3 97 bd 97 53 70 3f
       0.047392882 0.019866005 -0.0740423 0.9387755
000190 f6 55 2a 3f d4 f9 90 bf b1 20 3b bf d9 bc c8 bf
       0.66537416 -1.1326241 -0.7309676 -1.5682632
0001a0 72 42 e6 3c 22 ab b7 bf cd 63 34 bf 25 56 16 bf
       0.028107855 -1.43491 -0.70464784 -0.58725196
0001b0 2f 64 2e bf 6a d9 91 3f 52 3c 59 bf 9c 56 14 bf
       -0.6812162 1.1394475 -0.84857666 -0.57944655
0001c0 e0 45 b9 be b5 9d a6 3e 7c 7c 78 be 3c 7f c2 3d
       -0.36186123 0.32542196 -0.24266237 0.09496924
0001d0 d9 26 9d be 73 0f 75 bf 92 a3 ea 3d 00 a3 9e be
       -0.306937 -0.957267 0.1145698 -0.30983734
0001e0 a3 e2 04 3f 96 98 a2 bf ec e9 56 3e 94 98 2a 3f
       0.5190832 -1.2702816 0.20987672 0.66639066
0001f0 50 11 ed bd da 8e 26 bd 34 ee c3 be 1a 20 27 be
       -0.11575568 -0.040663578 -0.38267672 -0.1632084
000200 5b 99 dd 3c e7 34 47 3b c3 99 47 bd 9b ae 64 bd
       0.027050665 0.0030396522 -0.048730623 -0.05583058
000210 d1 3b b6 3c 85 5f 89 be bd 8d 02 bc df 6d 23 bc
       0.02224532 -0.26830688 -0.007968363 -0.009974926
000220 93 be 7e 3b 8d be 9e 3d 98 5c 9d 3c d6 32 77 3d
       0.0038870915 0.077511884 0.019209191 0.060351215
000230 05 22 b8 3d da e4 76 3d df 8d b8 3d 50 ef e0 bb
       0.08990864 0.060276844 0.09011435 -0.006864466
000240 76 4a 87 3d a4 56 c3 bf 03 c0 0f bf d0 ca 8d bf
       0.06605999 -1.5260816 -0.5615236 -1.1077518
000250 2c 96 be 3e c8 8e 15 3f 02 eb b5 bd 90 10 a4 bd
       0.37223947 0.5842099 -0.08882715 -0.080109715
000260 3c b7 9d bc e6 34 55 3d 12 30 52 3d 3b 79 bb bd
       -0.019252412 0.0520524 0.051315375 -0.09153982
000270 65 09 97 3f 48 4b b0 3f 3c 26 a9 bf ac 46 7b 3e
       1.1799742 1.3772974 -1.3214793 0.24538678
000280 f7 30 2d 40 f7 06 d5 bf 2f 6d 2e 3e 59 55 c5 be
       2.7061136 -1.664275 0.17033838 -0.38541678
000290 ad 13 9e 3e 74 54 48 bf 42 8d 08 be 1e 85 27 be
       0.30874386 -0.78253865 -0.13335136 -0.16359374
0002a0 cc f5 ae bd 20 e6 d1 bb bd f2 aa 3d 09 94 1e bd
       -0.08542976 -0.006405607 0.0834708 -0.038715396
0002b0 57 88 af 3d de cb 0c 3d 18 5a a8 3f 5a 73 8d bf
       0.08570927 0.03437411 1.3152494 -1.1050828
0002c0 0f ea c7 bf e7 8a 1c 40 0c 2f 96 bf 4c 74 5d bf
       -1.5618304 2.445978 -1.1733108 -0.8650558
0002d0 13 4b 35 3f 18 a6 0e bf f1 56 52 be 66 ad 2c 3e
       0.7081768 -0.5572219 -0.20540978 0.16863021
0002e0 a5 ad 5a be 10 3b 20 bf 2c fb ba bc e8 85 a3 bc
       -0.21355303 -0.6259012 -0.022824846 -0.019961312
0002f0 f1 30 a0 bd ce a7 52 3d e7 56 9a 3d 3b 01 85 3d
       -0.07821835 0.051429562 0.075361066 0.06494375
000300 0e 25 0d bf 4f 3a 39 3f 23 96 a2 be 8a af 88 3f
       -0.55134666 0.72354597 -0.3175517 1.067857
000310 ab fe 17 c0 c5 7f 70 3f fb 8e 0b 40 5e 5b d4 be
       -2.3749187 0.9394496 2.1806018 -0.41475958
000320 af bc 27 3e 42 90 3a 3e 40 48 80 bf 3f 92 e0 3d
       0.16380571 0.18219092 -1.0022049 0.10965394
000330 2b bf 61 bd ef 0e 88 3d 45 c0 0b bd b5 f6 a3 3d
       -0.055113953 0.06643473 -0.03411891 0.0800604
000340 82 95 0c 3d 88 ea 44 3c 28 4b d5 3f 74 1f c4 3e
       0.03432227 0.012018807 1.6663561 0.38305247
000350 5d 4a 4d 3f 62 fc c1 3f d7 f5 81 3f b0 80 e2 3e
       0.80191594 1.5155146 1.0153149 0.44238806
000360 0c 24 c4 be 98 ba ca 3e 57 6a 29 3f 14 df bb bd
       -0.38308752 0.39595485 0.66177887 -0.09173408
000370 b4 2f da 3d ee 10 65 3f 8c 93 ef bf 9b 0d a4 bf
       0.1065363 0.8947896 -1.8716903 -1.2816652
000380 bb 4d 12 bf 79 c4 5f bf 9b 14 a8 3d f0 f7 f6 3d
       -0.5714986 -0.8740917 0.08207055 0.12059009
000390 f2 ba f7 3e d3 34 eb 3c ca a0 31 bf d2 fd 87 3e
       0.48384815 0.028711712 -0.6938597 0.26560837
0003a0 5f 93 5a bf 4c 0d 50 be 60 98 3d 3e 86 d1 ab bc
       -0.8538112 -0.20317572 0.18515158 -0.020973932
0003b0 90 7e e8 bd 81 c9 27 bf 9e a0 5c be fe ee 34 be
       -0.11352265 -0.65541846 -0.21545646 -0.17669293
0003c0 7d bf 0a bc 93 4e b5 3c 76 8e 10 3d 0e fd 63 3c
       -0.008468506 0.022132194 0.03529211 0.013915313
0003d0 39 41 15 be 20 a2 90 bd 71 97 8e 3c 0d 40 2a 3d
       -0.14575662 -0.07062173 0.017406197 0.04156499
0003e0 03 6f 79 bd 54 32 84 bc e1 c1 4c bd 08 8a 4d 3c
       -0.060896885 -0.01613728 -0.049989585 0.012545116
0003f0 23 be a0 3d 0c 4b e3 bc 41 d0 66 bd 59 13 cd be
       0.07848766 -0.027745746 -0.05635095 -0.40053824

_fc1.bias f4 [32]
000000 89 9e 95 3f 17 04 f2 3e f6 88 c8 3e 95 47 96 3f
       1.1689006 0.47268745 0.39166993 1.1740595
000010 c4 c3 22 be 28 dc 7c bf 2a 1a 56 bf 54 bf 4c bf
       -0.15894991 -0.9877343 -0.83633673 -0.79979444
000020 f6 8e d7 bf cd 01 33 3f 02 eb de 3f 35 c0 14 3f
       -1.6840503 0.6992462 1.7415469 0.58105785
000030 5c f7 78 3e 88 75 93 be 68 eb 6a 3f 74 0d 22 3f
       0.2431311 -0.28800607 0.9176545 0.6330178
000040 7f 27 83 3f e4 8c 78 be 98 e1 a6 bd 5a 82 cb 3f
       1.0246428 -0.24272496 -0.08148497 1.5899155
000050 7b 35 fb be dc 36 75 3e 8d 8b 4d be 0c 78 89 3f
       -0.4906424 0.23946708 -0.20072766 1.073976
000060 1a 62 87 ba 76 69 89 bf 7f c6 9c 3e f0 2f 76 3f
       -0.0010328919 -1.0735309 0.3062019 0.96166897
000070 f5 a2 a0 3f 95 60 7f bc ea 7c 3f be 46 12 14 bf
       1.254973 -0.015586992 -0.18699995 -0.57840383

_fc2.weight f4 [32, 32]
000000 17 50 8d bd 2e 42 8a be a9 92 3c 3e 13 8a f5 bd
       -0.069000416 -0.27003616 0.18415321 -0.11989226
000010 ee d4 1b 3e 16 d1 cd 3c 56 60 5d bc ea 7f c2 bb
       0.15217945 0.025124114 -0.013511738 -0.0059356587
000020 d6 f8 02 be d4 01 5e be d6 d5 b8 3d c3 a2 89 be
       -0.12790236 -0.21680385 0.09025161 -0.2688199
000030 6d ca 6d be ce 42 28 3f 29 c7 a9 be 16 a0 88 3b
       -0.2322175 0.65726936 -0.3315976 0.0041694744
000040 35 44 77 be da d5 44 be 08 3e 40 3d b8 d1 aa bc
       -0.24147113 -0.19222203 0.046934158 -0.020851955
000050 5b ca b1 bd bb bb 4d 3e 16 74 03 3d 9b be 2a 3e
       -0.08681174 0.20091145 0.03209313 0.16674273
000060 e2 2c 35 be b1 e3 44 be 05 3a b4 3b f2 d4 87 3d
       -0.17692903 -0.19227482 0.0055000805 0.06632413
000070 a1 f2 70 bd d1 b1 d2 3d cd 60 90 3c 89 e5 35 3d
       -0.05882514 0.10287822 0.017624283 0.044408355
000080 39 90 09 3e 9b 81 42 bc 11 7b 48 be 3e 8a 3f 3f
       0.13433923 -0.011871721 -0.19578196 0.74820316
000090 6c 9d 8f 3c e4 c6 ca be 65 5a 9c 3d c4 5a 41 be
       0.01753112 -0.39604867 0.07634429 -0.1888228
0000a0 e3 57 4e be f3 a1 14 3e 3c 8b f5 3e 84 19 88 3e
       -0.20150714 0.14514904 0.4795779 0.26581967
0000b0 26 fa 47 3e 6d 4c 1d 3e 52 59 b5 3c d6 59 c3 3d
       0.19529018 0.15361185 0.022137318 0.09538619
0000c0 f5 0e e0 3d a8 b9 a2 bb 83 d1 17 3e 48 70 96 be
       0.10940353 -0.0049659796 0.14826016 -0.2938254
0000d0 6f 76 93 be 0e f4 78 bc a9 51 01 bc 1e 27 b9 3e
       -0.28801295 -0.015194906 -0.007893004 0.36162657
0000e0 11 13 80 3e e0 da 37 be 9d 00 a6 3b 56 d1 47 3d
       0.25014547 -0.17954588 0.005065991 0.048783623
0000f0 5e e8 51 be e6 1f 12 3e f7 44 71 3c 82 45 24 bf
       -0.20498797 0.14269981 0.014725915 -0.6416856
000100 1b e8 0f 3e 64 99 2c be bf 70 2a be 92 d5 a8 be
       0.14053385 -0.16855389 -0.16644572 -0.3297544
000110 b2 02 ba 3e be 84 49 be aa a2 aa 3a 24 d0 9d 3e
       0.3633018 -0.19679543 0.0013018448 0.3082286
000120 94 ca 25 3e e5 7c 58 be 1c 88 8c 3d e4 8d 05 3d
       0.16190559 -0.21141393 0.06861898 0.03260602
000130 79 3f eb 3d c9 0c 2f bd be d0 76 3e 71 e7 db bd
       0.11486716 -0.042736802 0.24103066 -0.10737503
000140 98 23 11 3d fe 60 85 3e 28 b8 b0 bd 62 41 21 3e
       0.035434335 0.26050562 -0.08628875 0.15747598
000150 c8 45 de be 9c a3 37 be 05 6c c4 3d 3f fd df 3d
       -0.43412614 -0.17933506 0.095909156 0.10936975
000160 36 88 df bc 95 81 7e 3e de d0 3a be 92 fd 79 3d
       -0.02728663 0.24854119 -0.18243739 0.06103284
000170 5f 66 aa 3d 28 81 a0 3d fa 42 e5 bd 4a ef bc 3d
       0.08320307 0.078371346 -0.111944154 0.09225328
000180 5b f9 7d bc 8b 19 84 3e 63 c9 64 bd a3 1c 9f be
       -0.0155013455 0.25800738 -0.05585612 -0.31076536
000190 0f a2 6f bd ed 5e 3a be b8 35 67 3d 60 14 5d 3d
       -0.05850416 -0.18200274 0.056447715 0.05397451
0001a0 42 06 72 3e ab 18 4b 3d 3d 07 14 be 2e 9d 56 bd
       0.236352 0.049584072 -0.14455886 -0.052395992
0001b0 d0 74 c6 3d c7 fa 6a 3e f9 0c 6f 3e 11 06 25 3e
       0.09690249 0.22947226 0.23344792 0.16115595
0001c0 18 a2 40 bd b0 58 12 3e 5a d1 9b 3e 45 56 35 3e
       -0.047029585 0.14291644 0.3043316 0.1770869
0001d0 ef c2 26 be d5 2c e2 be 38 46 00 be 92 e4 15 bc
       -0.16285299 -0.4417483 -0.12526786 -0.009148734
0001e0 fb f8 81 3e a1 74 c7 3e 9b f6 21 3e 95 55 9f bd
       0.2538527 0.38956168 0.15816729 -0.07779995
0001f0 0e 45 b3 3e 3e a6 9b 3e e7 8a 8e bd 7f 0d 39 3e
       0.35013622 0.3040027 -0.06960087 0.18071555
000200 03 d5 39 3e 06 13 0d be 4b 6d c2 bd 7c 73 13 be
       0.18147664 -0.13776788 -0.09493502 -0.14399523
000210 f8 e3 ba bd ae 44 9c be 5e 65 3a be bd 51 fe bd
       -0.09125513 -0.30521148 -0.18202731 -0.12417934
000220 20 a5 72 bd 64 a4 b3 3e bd d4 ef bc 38 61 07 bd
       -0.059239507 0.35086358 -0.029276246 -0.0330517
000230 0a 7d bb bd 30 32 26 be a5 fc e9 3c 73 81 e5 bd
       -0.09154709 -0.16230083 0.028562853 -0.11206331
000240 bf 51 2b 3e d4 f6 95 be 05 0d 4d bc db 43 a9 3d
       0.16730402 -0.29289877 -0.012515311 0.082648955
000250 7f 1d 11 3e 86 73 09 be 49 8f 03 be 12 76 2c 3c
       0.14171408 -0.13422975 -0.12847628 0.010526197
000260 1c 76 40 be 25 eb de bc fb 72 8e 3e 8a f8 f0 bd
       -0.18795055 -0.027211735 0.27822098 -0.11766155
000270 7b 8f 48 3e bd 9e c7 3d 31 c7 0f be b8 ff 9f be
       0.19585983 0.09747074 -0.14040829 -0.31249785
000280 b8 2e 8a 3e 1f f9 ec bd ac 39 19 bc d3 97 bc bd
       0.2698877 -0.115709536 -0.009352129 -0.09208646
000290 10 a2 a4 3d cc 24 85 bf 9a d9 d7 bd 2e 20 bb be
       0.080387235 -1.0401855 -0.10539551 -0.3654799
0002a0 66 bc 41 bd ed a2 8a 3e 31 75 a6 3e 81 17 88 be
       -0.04729881 0.27077428 0.32511285 -0.26580432
0002b0 be d0 89 be 45 ed dd 3d c1 ee 27 3d 82 05 ec 3c
       -0.2691707 0.10836271 0.040999178 0.02881122
0002c0 ac 19 a4 be 76 4c 73 3e d1 57 b5 ba 87 a5 81 3e
       -0.32050836 0.23759636 -0.0013835375 0.253216
0002d0 b6 d2 9f 3e 99 02 70 3e 7c 6f 00 3e ff 0c d5 ba
       0.31215447 0.23438491 0.12542528 -0.0016254483
0002e0 d8 8b 9a 3d 98 6f 39 bd 26 79 12 3e 97 a2 1b 3e
       0.07546204 -0.04527244 0.14304027 0.15198742
0002f0 49 06 9a be 55 52 59 be 08 fa 5a bd b7 eb 9d bb
       -0.3008292 -0.21222813 -0.053461105 -0.004819359
000300 48 45 4a 3e 3c 21 14 bc ef d1 28 bd 37 8c b1 3c
       0.19752991 -0.009041127 -0.041215833 0.021673305
000310 61 a2 5d be 68 28 d5 3d 0e 43 0c bd 73 9d 59 bc
       -0.21643974 0.104080975 -0.034243636 -0.013282168
000320 5d ea a0 be 41 0b 64 be 55 45 3f 3e 30 25 48 be
       -0.31428805 -0.22269918 0.18678792 -0.19545436
000330 c6 c8 33 3d 3f 34 b8 3c 77 97 a6 3e 6c 28 90 be
       0.043892644 0.02248585 0.32537434 -0.2815584
000340 d2 aa 4f be 8e 84 d7 3d ba 4d ae be 69 9c 0e 3f
       -0.20280007 0.1052333 -0.34043676 0.5570741
000350 85 d3 8e 3d 74 b8 1b 3e 1e 9d 38 bc 43 8f 97 3e
       0.06973938 0.15207082 -0.011267928 0.29601488
000360 93 29 ce bd d6 76 3f be 2b 6f bf 3d bf 75 90 3e
       -0.100665234 -0.18697676 0.093473755 0.28214833
000370 ac 86 0f 3e be 55 95 3c 38 d1 c8 be 96 cc e0 3e
       0.14016217 0.018229362 -0.3922212 0.43906087
000380 b4 4c c4 be 9c 73 62 3d 47 1b 3f 3f 69 d1 04 3e
       -0.3833977 0.055286035 0.74650997 0.12970509
000390 09 04 b2 bd 62 d7 fa bd 8a f8 51 3e 25 0a 74 be
       -0.08692176 -0.12248112 0.20504966 -0.23831995
0003a0 73 27 bd 3d ab 82 d7 be 8c 82 ec bd bc 81 87 3d
       0.0923604 -0.4209188 -0.11548337 0.06616542
0003b0 c1 48 a0 3e d8 b8 92 3e fa 7c a4 3e 6b b9 8f 3c
       0.31305507 0.2865665 0.321266 0.017544469
0003c0 d6 bf cc 3e 58 0f 0c 3d e4 a1 4d be 34 9d 43 3e
       0.3999011 0.03419432 -0.20081288 0.19102937
0003d0 f7 36 35 bf 5d 3e c2 bd 81 d6 1c be 6d 93 5b 3e
       -0.70786995 -0.09484551 -0.15316202 0.21442957
0003e0 ac a8 20 bf 7c 7f 7c 3e 41 a1 7d be aa 82 b1 be
       -0.6275737 0.24658006 -0.24768545 -0.3467
0003f0 11 e4 6e be 22 d8 a9 3d 3f 3a 17 3e 2a 71 ad be
       -0.23329188 0.08293177 0.14768313 -0.338754

_fc2.bias f4 [32]
000000 12 5d 9b 3f 71 11 dd 3e 72 55 aa bd 1f 5c a8 be
       1.2137778 0.4317737 -0.08317079 -0.32882783
000010 b7 06 f5 3f 16 33 2c 3d 08 df bb 3e f4 a1 58 3f
       1.9142674 0.042040907 0.36693597 0.8462212
000020 4d ca 58 bf e6 5f f5 3e 56 35 41 bf a1 5b cc 3c
       -0.84683686 0.47924727 -0.7547201 0.024946036
000030 f3 84 76 3f 3b 0a 88 3f 9f a3 c6 be 85 68 1d 3f
       0.96296614 1.0628122 -0.38796708 0.6148761
000040 88 a0 55 3f b8 54 e7 be 3f 29 26 bf b2 22 19 3f
       0.83448076 -0.45181823 -0.64906687 0.59818566
000050 74 25 f3 be 0b f4 62 3e d8 75 0f 3f 07 36 14 bd
       -0.47489512 0.22163408 0.5603919 -0.036184337
000060 32 ec ca 3f 67 d0 62 3f 88 04 c2 bd 36 2e a9 be
       1.5853331 0.88599247 -0.094735205 -0.3304307
000070 43 8d 41 3f 2a 69 e9 3e e2 b8 10 3f 79 86 0d 3f
       0.75606173 0.45588046 0.5653211 0.55283314

_fc3.weight f4 [8, 32]
000000 93 21 8f 3d a5 a5 71 3c a1 b5 13 3e b9 53 07 3e
       0.06988826 0.014748965 0.14424755 0.13215531
000010 53 fa 8a 3c a0 31 12 bd ac 35 2b 3d 41 db 1e bd
       0.016965067 -0.035691857 0.041799232 -0.038783316
000020 db 31 82 3d c2 87 00 3e 98 e8 ed 3c d3 59 81 3c
       0.063571654 0.12551787 0.029041573 0.015789902
000030 10 02 2e 3d cb 38 fd bd 5e b4 21 bc 9d ea 12 be
       0.042482436 -0.12364348 -0.009869663 -0.1434731
000040 58 0e a2 bd a5 81 28 bd 9d 6d 1c bd 48 79 bd 3c
       -0.07912892 -0.041139264 -0.038190473 0.02312912
000050 0b 58 93 bd 26 9d 6c bc aa 9d ba bd 77 50 56 bd
       -0.07194527 -0.014441764 -0.09112103 -0.05232283
000060 1e 85 32 bd b7 b5 61 bd 93 99 ca 3d c4 5c 17 be
       -0.04358398 -0.055104937 0.09892573 -0.14781481
000070 54 50 71 3d b4 6a 2c 3d fe d9 2d bd 8f 05 db 3d
       0.058914497 0.042093948 -0.04244422 0.106944196
000080 b4 a1 62 bd bd aa 4f be 5b 16 54 bd 6e 2e 82 3c
       -0.055329993 -0.20279975 -0.051779132 0.01589128
000090 ed 66 3c 3e 0e c2 0c bd d9 a2 da bd 8f 0d 64 3c
       0.18398638 -0.034364752 -0.10675592 0.013919248
0000a0 74 56 c7 3d 2c d1 55 bd 19 ee be bd 1a a5 a1 3d
       0.097332865 -0.052201435 -0.09322757 0.07892819
0000b0 59 1b 3e bd d9 9e 05 3d 2a c5 bf 3d 6f 91 84 3d
       -0.0464128 0.032622192 0.09363778 0.06473052
0000c0 21 20 ad 3d 35 56 76 3c d3 50 63 bd bd 61 bc 3d
       0.08453394 0.015035202 -0.055497 0.091983296
0000d0 15 da 50 bd e7 de 8b bd c4 4f 8a 3c 4c 62 c3 bd
       -0.05098923 -0.068296246 0.016883738 -0.09540233
0000e0 5c b0 0c bd e5 d7 b5 bc 45 02 ba bc d2 30 06 be
       -0.034347877 -0.022197673 -0.02270616 -0.13104561
0000f0 56 82 30 3e bc 7b 35 bd ab 24 10 3e 36 6f a6 3c
       0.17237219 -0.044307455 0.14076488 0.020316701
000100 7b 63 15 be eb 26 fb 3d 4b 3b 88 3d 0e c9 1e bd
       -0.1458873 0.122632824 0.06651934 -0.03876596
000110 22 28 83 3d 72 23 e2 3d 32 7c d8 bd 8e 81 30 3c
       0.06404139 0.11041917 -0.105705634 0.010773076
000120 02 34 82 3d 0d 00 c5 3c 2e 6a b7 3d 54 07 07 bd
       0.06357576 0.024047876 0.08955799 -0.032965973
000130 33 d4 f4 bd 88 f7 12 3e c2 eb df bd de a1 a2 bd
       -0.11954536 0.14352238 -0.10933639 -0.0794103
000140 88 ac 1a 3e 7e 50 86 bd 71 63 46 bc 59 60 b4 bd
       0.15104878 -0.065583214 -0.01210867 -0.08807439
000150 f8 34 b4 3d 38 40 9a 3b f1 b8 d6 3d 4b bb c6 bc
       0.087991655 0.0047073625 0.104844935 -0.02425923
000160 b1 c7 8a bd d4 e6 aa 3c eb a1 9c bd f7 1d 8a bc
       -0.06776369 0.02086202 -0.07648071 -0.016859991
000170 94 36 05 be c4 5d 14 be 12 90 5c bd 9b 92 bb 3d
       -0.13009101 -0.14488894 -0.053848334 0.09158822
000180 4c 03 a3 bb df cb 64 bd e8 16 98 bd 1c 6b be bd
       -0.0049747583 -0.05585849 -0.07426244 -0.09297773
000190 10 ba b2 3d f7 46 53 3d b5 97 8a 3d 28 f1 b6 3d
       0.08726895 0.05158135 0.06767217 0.08932716
0001a0 aa c8 6a be 6b fa be bc 73 72 6b bc 31 36 5c 3d
       -0.2292811 -0.023312768 -0.014370549 0.05376262
0001b0 e6 f3 c0 ba 5f ef e0 bc ea 64 98 bd 2a 25 28 3d
       -0.0014721125 -0.027457891 -0.07441123 0.041051067
0001c0 97 b1 f7 3d 7f aa 8c bd d9 08 d5 3d 0a e5 8e 3d
       0.120944194 -0.06868457 0.10402078 0.069772795
0001d0 79 61 dc bc 8f 72 d2 3d 4f 96 f5 3c 6f 92 97 bd
       -0.026901947 0.102757566 0.0299789 -0.07400977
0001e0 4f 75 23 3d df ac 1a 3e ac d7 b2 3d 92 26 ef bd
       0.039906796 0.15105008 0.087325424 -0.116772786
0001f0 33 2b 00 3e ad fa 1e bd d9 df aa 3d f0 d4 6d 3d
       0.12516479 -0.03881328 0.08343477 0.0580644
000200 ce 29 ca bd 7f 16 53 3d 97 b2 86 3b e0 94 bd 3d
       -0.09871255 0.051535126 0.004110645 0.09256911
000210 a8 7e 4c 3d 2e 90 33 3d 0f 48 5f 3d bb 94 ba bc
       0.049925476 0.043838672 0.05451208 -0.022775998
000220 b4 5a e2 bd f3 80 12 3d 8a 0c c3 3d 6d 72 17 bd
       -0.110524565 0.035767507 0.09523876 -0.03697436
000230 ed 9d de bd 1c 9e c7 bd 92 a4 41 bd de bb 74 bb
       -0.10869966 -0.09746954 -0.047276087 -0.0037343423
000240 84 af 83 bd d1 4c 00 3e 43 d8 d3 bc b0 14 8e 3c
       -0.06429961 0.12529303 -0.025859958 0.017343849
000250 dc b0 e0 3c 26 63 19 3e 00 8f c3 3d e9 1d 93 bd
       0.027428083 0.14979228 0.095487595 -0.07183439
000260 e7 f9 48 3d 86 ce 1d 3d b0 a1 92 bd 96 cb b9 bd
       0.04906645 0.038527034 -0.07159746 -0.09072034
000270 f1 18 94 bd ac b9 0f 3d f4 00 80 bc 6a 00 8a bd
       -0.0723132 0.03508918 -0.015625454 -0.0673836
000280 fe 84 1e 3d 3f 14 55 3d 75 e1 79 3d 06 6a 53 3c
       0.03870105 0.05202126 0.06100603 0.012903696
000290 98 5c f0 3c 71 95 09 bd 8a ca b1 3c f0 49 8c bd
       0.029341027 -0.033589784 0.021703023 -0.0685004
0002a0 ea f7 ae 3d 39 52 ba 3b aa 1b f5 bc 97 55 b5 bc
       0.085433796 0.0056860712 -0.029920418 -0.022135539
0002b0 96 96 07 3d 3b ea b0 bc c4 c1 4f bd c3 37 c6 bc
       0.033102594 -0.021596065 -0.0507219 -0.024196511
0002c0 16 da da bd 20 54 a0 bb 21 ad 89 3c 8d 66 85 bc
       -0.10686128 -0.004892841 0.016806187 -0.016284252
0002d0 47 40 91 bd d4 36 c3 bc 88 c1 5f bc da 78 38 bc
       -0.07092338 -0.023829855 -0.013656981 -0.011259282
0002e0 69 3a ef 3b a9 3f 55 3e a2 d1 3d 3d 02 0e aa 39
       0.007300664 0.20825066 0.0463425 0.00032435363
0002f0 30 b3 13 3d e1 45 8e 3c f7 6c 5e bd 4a 1b 45 3c
       0.03605956 0.017367305 -0.054303136 0.012030432
000300 c8 e4 db 3d 83 1f ca bd 7d d8 67 bd 64 f3 87 3d
       0.10736996 -0.09869292 -0.056602944 0.0663822
000310 f1 9d fb bd d0 d6 a7 bd 66 13 88 bd 95 8b 0f 3e
       -0.12285984 -0.08195269 -0.06644325 0.1401809
000320 4c 37 88 bd 56 5f da bd 4f 08 49 bd a6 a4 ff 3d
       -0.06651172 -0.10662715 -0.04908019 0.12482576
000330 f9 1f be bd f1 74 09 bd d0 81 a1 3d 4e 4b d5 3d
       -0.09283442 -0.03355879 0.07886088 0.10414754
000340 d8 22 b1 bd 72 ff 12 be db 8a 85 3d 0c 0c 8e 3d
       -0.08649224 -0.14355257 0.06520625 0.069358915
000350 e8 16 08 3e ac b0 0b bc a3 35 21 bd 89 b7 5f 3d
       0.13289988 -0.008526009 -0.039357793 0.054618392
000360 73 37 e2 bd 2b 60 54 3c ef 03 83 bc ca 7f 94 bb
       -0.11045732 0.012962381 -0.015993087 -0.004531835
000370 24 ad 3b bd ff c7 dd 3d 52 ce ba 3d fa 89 c7 3c
       -0.045819417 0.10829162 0.09121384 0.024357785
000380 d2 37 e4 3c c2 78 88 3c 70 44 fc bd 71 89 69 3d
       0.027858648 0.016659144 -0.12317741 0.05701584
000390 22 63 18 3d 62 4f 6c 3d fb 35 1b 3d 87 a2 44 bd
       0.037203915 0.057692893 0.037893277 -0.04800656
0003a0 18 92 b1 3d 27 c2 8a 3d 18 72 42 bb d8 b8 e1 bc
       0.08670443 0.06775313 -0.0029670056 -0.02755396
0003b0 b0 07 fc 3d 36 01 e8 bc fe 09 69 bd af ef 86 bd
       0.12306154 -0.02832089 -0.056894295 -0.06588685
0003c0 d1 89 bb 3d ad 8e 76 3d 4a 60 60 bd b6 43 33 bb
       0.09157146 0.06019466 -0.05477933 -0.0027353591
0003d0 84 4f cb 3d 0f 13 81 bc 0d b1 96 bd 4b 84 a3 bd
       0.09927276 -0.015756158 -0.073579885 -0.07984217
0003e0 31 42 7c bc bb ca d1 bc 5d ba 77 3c 14 4b 59 bc
       -0.015396641 -0.025609365 0.015120116 -0.013262529
0003f0 cf 98 06 be fa b6 f2 3b 31 9c 1a bd 90 0b 80 bc
       -0.1314423 0.0074070664 -0.037746612 -0.015630513

_fc3.bias f4 [8]
000000 40 46 2f 3e ac f1 ea bd b9 31 55 3d f0 b2 eb bd
       0.17116642 -0.114718765 0.052049372 -0.11508739
000010 e6 ff 9d 3d 4a db 8d 3c e0 72 97 3e 10 1a 27 3e
       0.077148244 0.01731648 0.2957983 0.16318536
