hw1/data/results/session_halfcheetah_pytorch/checkpoint.pth (torch_old, 8413 bytes, 6 tensors)

_fc1.weight f4 [32, 17]
0	0xbf1b6f7b	-0.6071698
1	0x3f46e2b0	0.7768965
2	0xbf255036	-0.6457552
3	0xbfb456c4	-1.4088979
4	0xbe28b5e1	-0.16475631
5	0x3faff7ac	1.3747458
6	0x3f2675cc	0.65023494
7	0x3f92a2d3	1.145594
8	0xbd83ed2d	-0.06441722
9	0xbe92ccb2	-0.28671795
10	0x3e143f3b	0.14477246
11	0xbcddc59f	-0.027071772
12	0x3c0b85a5	0.00851575
13	0xbc19aac3	-0.009379092
14	0xbd62e645	-0.055395383
15	0x3c9bce0b	0.019019147
16	0x3d045378	0.032306165
17	0x40209878	2.509306
18	0xbf9a5e7a	-1.2060082
19	0xbf387020	-0.7204609
20	0xbf3d51e4	-0.7395308
21	0xbe7500ac	-0.23926038
22	0xbf8f3371	-1.1187574
23	0x3f53ef0a	0.8278662
24	0xbe9ac3e1	-0.3022757
25	0x3dc44270	0.095829844
26	0x3ec85389	0.39126232
27	0x3c88dce1	0.016706886
28	0x3d003aee	0.0313062
29	0xbc3a0f61	-0.011356206
30	0xb8bbe600	-8.959696e-05
31	0x3d1cd166	0.038285635
32	0xbc492c9f	-0.012278705
33	0x3c0b9825	0.008520161
34	0xbf869bcc	-1.0516295
35	0xbf8ac026	-1.0839889
36	0x3eeb1961	0.459178
37	0xbea168bf	-0.31525227
38	0x3ea4e161	0.322032
39	0xbd9b4ced	-0.07583032
40	0xbf9dc820	-1.2326698
41	0xbf5aba9c	-0.85440993
42	0xbd916dfe	-0.071010575
43	0x3e13a807	0.14419566
44	0xbe9bdb82	-0.3044091
45	0xbdc29119	-0.095003314
46	0x3c97e5c9	0.018542187
47	0x3c587a09	0.013212689
48	0xbd7cdad6	-0.061732136
49	0x3c482384	0.012215499
50	0x3d0398f7	0.0321283
51	0xc04f0dfc	-3.2352285
52	0x3ef7e4ad	0.48416653
53	0x3e7843c4	0.242446
54	0xbf23b611	-0.63949686
55	0xbd03425c	-0.032045707
56	0x3fb509f1	1.4143659
57	0xbfa32601	-1.2745973
58	0xbe502151	-0.20325209
59	0x3ccffb15	0.02538828
60	0xbe877ca2	-0.26462275
61	0x3d9ebe31	0.0775112
62	0xbd06aff1	-0.032882635
63	0xbcd41719	-0.02588992
64	0xbc2fb8d9	-0.010725223
65	0xbcf18add	-0.02948516
66	0xbc819b9b	-0.015821269
67	0xbbff4f0c	-0.0077914055
68	0xbf86dce0	-1.0536156
69	0xbe2f1e77	-0.17101465
70	0xbd1f6472	-0.03891415
71	0xbf209a98	-0.6273589
72	0x3f1e532f	0.6184568
73	0x3fa05594	1.2526116
74	0xbe7e2bd0	-0.248214
75	0xbcd7e227	-0.026352955
76	0x3e07cdcb	0.13262098
77	0xbecd2cc5	-0.4007322
78	0x3dac3e06	0.084102675
79	0xbd00fca2	-0.03149093
80	0x3b804cee	0.0039154207
81	0x3d28c0b8	0.041199416
82	0x3d0ae396	0.03390845
83	0xbd3de57e	-0.04636144
84	0x3c0fdd14	0.0087807365
85	0xbfdfe614	-1.7492089
86	0xbeffe77c	-0.49981296
87	0xbf6140c8	-0.87989473
88	0x3fb7cacf	1.4358767
89	0xbf837591	-1.0270253
90	0xbe9c6796	-0.3054778
91	0x3f1aaa2c	0.6041591
92	0x3f247518	0.6424117
93	0x3dc53ef1	0.09631146
94	0xbdc0d094	-0.09414783
95	0x3da9ca9c	0.08290598
96	0x3c19dbdb	0.009390797
97	0x3ab0d278	0.0013490459
98	0xbbfb4ff7	-0.0076694447
99	0xbc29918c	-0.0103496425
100	0x3d2e75f8	0.042592973
101	0x3c6a1400	0.014286995
102	0x3f7a70a8	0.9782815
103	0xbfb24452	-1.39271
104	0xbef7131b	-0.48256764
105	0x3e920343	0.28518113
106	0xbeec4081	-0.46142963
107	0xbfcf68dd	-1.6203877
108	0x3eefbe72	0.46824986
109	0x3e97eaa3	0.296712
110	0xbe35e55f	-0.1776328
111	0x3eb4feab	0.35350546
112	0xbe8adec7	-0.2712309
113	0x3ceb08f2	0.028690789
114	0x3d9deb29	0.07710869
115	0xbd7103ef	-0.058841642
116	0xbcb555ad	-0.02213558
117	0x3d4f36ff	0.050589558
118	0x3c956be0	0.018239915
119	0x3efd49ae	0.49470276
120	0x3ee62c05	0.4495546
121	0x3e5d061a	0.21584359
122	0x3a7fba11	0.0009755204
123	0x3e5548ea	0.20828596
124	0x3e6e1142	0.23248771
125	0xbeeb262e	-0.45927566
126	0xbf419d09	-0.7563024
127	0xbe064100	-0.13110733
128	0xbf0ec4a0	-0.55768776
129	0xbe9af89f	-0.30267808
130	0xbc7e928e	-0.015537871
131	0xbb90d70e	-0.0044201678
132	0xbd1deac2	-0.03855396
133	0xbcb238f8	-0.02175568
134	0x3de974d8	0.11399239
135	0x3ccbcab6	0.024876934
136	0xbfc3a9db	-1.5286211
137	0xbf330056	-0.6992239
138	0xbe82d67a	-0.25554258
139	0x3f591b74	0.84807515
140	0x3e7138bc	0.23556799
141	0x3e723ab7	0.2365521
142	0x3e99eed5	0.30065027
143	0x3f420d46	0.75801504
144	0xbe013272	-0.126169
145	0x3d9d2e1d	0.07674811
146	0x3e5f924b	0.2183315
147	0x3d9895d1	0.0745045
148	0xbcb3ec0e	-0.021963146
149	0xbc7b43a7	-0.015335954
150	0xbda2c2bc	-0.07947299
151	0xbd9fa29f	-0.077946894
152	0xbdb51119	-0.08841152
153	0x3f3ad463	0.72980326
154	0xbf382775	-0.71935207
155	0xbd12fc08	-0.035884887
156	0x3efa11fa	0.4884184
157	0xbe8e9da1	-0.27854636
158	0xbccd2d3e	-0.025045987
159	0x3e00d296	0.12580332
160	0xbe5d2942	-0.2159777
161	0xbeaa3d67	-0.3324997
162	0x3d2947b6	0.041328155
163	0xbeee5599	-0.4654968
164	0xbd248bfe	-0.04017257
165	0x3cdb16b3	0.026744222
166	0xbc2a487c	-0.010393258
167	0x3c38474f	0.01124747
168	0xbd2c80c3	-0.042114984
169	0xbc5a1366	-0.013310289
170	0x3eb0b5d1	0.34513715
171	0x3f28b64c	0.6590316
172	0x3e91fdcd	0.28513947
173	0x3e93b86e	0.28851646
174	0xbf1d5c86	-0.61469305
175	0x3fb859b9	1.4402381
176	0x3b1d51e3	0.0024005107
177	0x3ecd6da9	0.40122727
178	0x3e7950dc	0.24347252
179	0x3e1019d6	0.14072356
180	0xbd37c965	-0.0448698
181	0xbd3529ad	-0.0442292
182	0xbcdbc73c	-0.0268284
183	0x3d36a6c3	0.04459263
184	0x3d6122dc	0.054964885
185	0xbcbc6a76	-0.022999983
186	0xbd0e045e	-0.034672134
187	0xbf8c8ad7	-1.097987
188	0xbe4d56d0	-0.20052648
189	0xbe3a3d36	-0.18187413
190	0xbed82d62	-0.42222124
191	0x3e98880b	0.29791293
192	0x3e56bd3a	0.20970622
193	0x3f2610d3	0.6486942
194	0x3ead2ea7	0.33824655
195	0x3e3173e0	0.17329359
196	0xbd1d9c9c	-0.038479432
197	0x3e747f2e	0.2387664
198	0x3cdb3b23	0.026761597
199	0xbcf50067	-0.029907418
200	0xbb351884	-0.002763302
201	0xbd8021e6	-0.062564656
202	0xbd918c95	-0.07106892
203	0xbd29defd	-0.041472424
204	0xbfc6cbb0	-1.553091
205	0x3f152049	0.5825239
206	0xbe83d7d2	-0.25750595
207	0xbf12a662	-0.5728513
208	0xbe8a51a0	-0.270154
209	0x3e20c8f7	0.15701662
210	0x3f12d1ba	0.5735127
211	0xbd485e66	-0.04891815
212	0x3eac78f4	0.3368603
213	0xbf0a54b0	-0.5403547
214	0x3e737b74	0.23777562
215	0x3b6013b0	0.0034191422
216	0xbcaf5356	-0.021402042
217	0xbb8cffeb	-0.0043029687
218	0x3da13abc	0.07872531
219	0xbc990fcc	-0.01868429
220	0xbb08e0c6	-0.0020885929
221	0x4042d344	3.0441446
222	0x3e4eb258	0.2018522
223	0x3f18fc4f	0.5975999
224	0xbf7e2373	-0.9927284
225	0x3e52dd46	0.20592222
226	0x3e92cd83	0.28672418
227	0xbea1d476	-0.31607407
228	0xbf51f3a9	-0.8201242
229	0xbdb4000f	-0.08789074
230	0x3e4f3593	0.2023528
231	0xbe3567da	-0.17715397
232	0x3aaab464	0.0013023731
233	0x3cdec18c	0.0271919
234	0x3bf86c44	0.0075812656
235	0xbdf6fae1	-0.1205957
236	0xbd235bb9	-0.039882395
237	0xba39b441	-0.000708405
238	0xc0022ec2	-2.0341039
239	0xbe37a816	-0.17935213
240	0x3f93f338	1.15586
241	0x3f627fd9	0.8847633
242	0xbea98ed7	-0.3311679
243	0x3ee05a5d	0.43818942
244	0x3ea85c0b	0.32882723
245	0xbf8109d9	-1.008113
246	0x3e1b42de	0.15162227
247	0xbe3aab72	-0.18229464
248	0xbde0105c	-0.1094062
249	0x3cb28fac	0.021797024
250	0xbdaabf91	-0.0833732
251	0xbc916d6e	-0.017752375
252	0x3d11e847	0.035621908
253	0x3c1ed47c	0.009694215
254	0xbd43cf40	-0.04780507
255	0x3d1e2113	0.03860576

_fc1.bias f4 [32]
0	0xbe0f3bd7	-0.13987671
1	0x3f95afee	1.1694314
2	0x3eba994c	0.3644508
3	0x3cafe62e	0.021472063
4	0xbf341d13	-0.70356864
5	0x3f4fd294	0.8118069
6	0x3ee975e6	0.45597762
7	0xbf517bc8	-0.818295
8	0x3f809454	1.0045266
9	0x3f6d18b7	0.92615837
10	0xbd8cddf2	-0.0687827
11	0xbf7e9267	-0.9944214
12	0xbeca3fca	-0.39501792
13	0x3f4df325	0.80449134
14	0xbe0f3c99	-0.1398796
15	0x3f66dfde	0.90185344
16	0xbf0097ae	-0.50231445
17	0x3f2f2f3b	0.6843144
18	0x3f151155	0.5822957
19	0xbe987a09	-0.29780605
20	0x3e94f762	0.29094988
21	0x3f75b221	0.9597493
22	0xbdc88afb	-0.097921334
23	0xbe2a73a8	-0.16645682
24	0x3f952aaa	1.1653645
25	0xbe7bc2c0	-0.2458601
26	0x3f01151b	0.5042283
27	0x3e95ca39	0.29255846
28	0x3e9af63c	0.30265987
29	0xbee0de29	-0.43919495
30	0xbec920f8	-0.39282966
31	0x3fb7c055	1.435557

_fc2.weight f4 [32, 32]
0	0x3e72f51c	0.23726314
1	0xbf0e5434	-0.55597234
2	0xbdc368a1	-0.09541441
3	0x3eb6ea88	0.35725808
4	0x3d9c3229	0.07626755
5	0xbd640066	-0.055664442
6	0xbe2bc038	-0.16772544
7	0x3e462778	0.19350994
8	0xbdbe186d	-0.092820026
9	0x3cd93d9a	0.026518632
10	0x3d986b49	0.07442338
11	0x3d8b391e	0.067980036
12	0x3dcd9b91	0.100394376
13	0xbe5b1f47	-0.2139865
14	0x3cc46d94	0.023978032
15	0xbecf9970	-0.4054675
16	0xbdf5df7e	-0.120055184
17	0xbd009312	-0.031390257
18	0xbe893fd2	-0.26806504
19	0x3e2efaf1	0.17087914
20	0x3c4b78f3	0.012418973
21	0xbdef3b50	-0.11681235
22	0x3d97c19b	0.07409974
23	0x3e69df3c	0.22839063
24	0xbe8c33fb	-0.27383408
25	0x3dc83777	0.09776204
26	0xbd5bb2b4	-0.05363722
27	0x3eac1e47	0.3361685
28	0xbdb7a507	-0.08967023
29	0xbdda1329	-0.10648186
30	0x3e42cce5	0.19023474
31	0xbf0efb3c	-0.55852103
32	0x3e978c76	0.2959935
33	0xbf4c5782	-0.79821026
34	0xbdcd9278	-0.10037702
35	0xbdc6a6f0	-0.096998096
36	0x3deb7b75	0.11498157
37	0xbe1eb320	-0.15498018
38	0xbdf9bd79	-0.12194342
39	0xbd79f9ce	-0.061029248
40	0xbdda1eb3	-0.10650387
41	0x3e5c0ce7	0.21489297
42	0x3eb499ba	0.35273534
43	0x3e09b9a2	0.1344972
44	0x3dffcbc6	0.124900386
45	0x3ca6e70b	0.020373842
46	0x3e008fa3	0.12554793
47	0xbeed2077	-0.4631383
48	0x3bbbca33	0.005730891
49	0xbd944dd3	-0.07241406
50	0xbe779a8f	-0.24180053
51	0xbd12736d	-0.03575461
52	0xbd2debbe	-0.04246115
53	0x3da87336	0.082251
54	0x3e6124d8	0.21986711
55	0x3d9fffd6	0.07812469
56	0x3a92ddaf	0.0011204983
57	0x3e0113e3	0.12605242
58	0xbab4cc2b	-0.0013793757
59	0xbdd5d13a	-0.104402974
60	0x3ef70d76	0.48252457
61	0xbe4b00c0	-0.19824505
62	0xbd9fd8ea	-0.07805045
63	0xbcde2a3b	-0.027119746
64	0xbeaa3897	-0.332463
65	0xbe2d469e	-0.1692147
66	0x3ec730a2	0.3890429
67	0xbe2823c9	-0.16419901
68	0xbe4ca820	-0.1998601
69	0x3e5373f3	0.206497
70	0xbe459ece	-0.1929886
71	0x3d434723	0.047675263
72	0xbdc47fe8	-0.09594709
73	0xbe4ab652	-0.19796112
74	0x3e818d94	0.25303328
75	0xbd872e23	-0.06600597
76	0x3e55ad90	0.2086699
77	0xbd53e1b8	-0.051728934
78	0xbe29a88d	-0.16568203
79	0xbe16fc36	-0.14744648
80	0x3de93e24	0.113888055
81	0x3d552005	0.05203249
82	0xbe63ab2a	-0.22233263
83	0xbd3a833f	-0.045535322
84	0xbde40374	-0.11133471
85	0x3e2758c1	0.1634245
86	0x3e45ef5f	0.19329594
87	0xbcfa70a4	-0.03057129
88	0xbdcf3152	-0.10116829
89	0x3e8766c0	0.2644558
90	0xbd8e918b	-0.06961354
91	0x3e33ccab	0.17558543
92	0xbea61347	-0.32436582
93	0x3e088842	0.13333228
94	0xbdfd8e01	-0.12380601
95	0xbe56c909	-0.20975126
96	0xbeb7bfaf	-0.3588843
97	0x3b03a918	0.0020089801
98	0x3ec51c24	0.38498032
99	0x3ec04d6f	0.37559077
100	0x3db743d8	0.08948487
101	0xbc94408e	-0.018097188
102	0x3e58e0a5	0.21179445
103	0xbdde4ed3	-0.10854878
104	0x3e34cf77	0.17657267
105	0x3d79384d	0.06084471
106	0xbda39445	-0.079872645
107	0x3d999a66	0.07500152
108	0x3e4fb8e7	0.20285378
109	0x3dd0122d	0.10159717
110	0xbc7009d5	-0.014650782
111	0xbdd86150	-0.10565436
112	0xbd131134	-0.035905078
113	0xbeca9ffc	-0.39575183
114	0x3d69e469	0.057102595
115	0xbbb19ba7	-0.0054201665
116	0x3e3b417f	0.18286704
117	0x3dd7f392	0.10544504
118	0x3c4aa2f9	0.012367957
119	0xbe368c73	-0.17827015
120	0x3d250eaa	0.040297188
121	0x3bb3a6df	0.005482539
122	0x3da21a2b	0.079151474
123	0xbdf96ac0	-0.12178564
124	0xbea04313	-0.31301174
125	0xbd124ba1	-0.035716657
126	0xbd60bfa5	-0.054870266
127	0xbeafca05	-0.34333816
128	0xbe7f3ee5	-0.24926336
129	0xbe31cdcc	-0.17363662
130	0x3c751abe	0.014959989
131	0x3eb60279	0.3554876
132	0xbe2dfa65	-0.16990049
133	0x3eaa5e5e	0.3327512
134	0xbd2e001c	-0.042480573
135	0x3e803edc	0.25047958
136	0x3df4851b	0.1193945
137	0xbe4f4daa	-0.2024447
138	0x3de4dfbe	0.11175488
139	0xbe302c2c	-0.1720435
140	0xbd84c9a0	-0.064837694
141	0xbd990a1c	-0.07472631
142	0x3e75e6ba	0.24013796
143	0x3e4ca547	0.19984923
144	0xbc37cbb3	-0.011217999
145	0x3d020e16	0.031751715
146	0xbdbedace	-0.093190774
147	0xbca33783	-0.019923931
148	0xbd8896c5	-0.06669382
149	0x3e3b8d03	0.1831551
150	0x3e08ddf1	0.13365914
151	0xbe261982	-0.16220668
152	0xbe0d3854	-0.13791019
153	0xbe350f43	-0.17681603
154	0xbc873808	-0.01650621
155	0x3e572a65	0.21012266
156	0xbcf6074e	-0.03003278
157	0xbc8322e0	-0.01600784
158	0xbd89abac	-0.06722197
159	0x3e14ed0a	0.14543548
160	0x3a747a28	0.0009326064
161	0xbea717ab	-0.32635245
162	0x3dd309c1	0.10304595
163	0xbe9f4e09	-0.31114224
164	0xbe24d1d5	-0.1609567
165	0x3d673c5e	0.056454055
166	0x3e85f379	0.26162317
167	0xbdb418b1	-0.08793772
168	0x3e317d3a	0.17332926
169	0x3e25b903	0.16183858
170	0x3e0163a7	0.1263567
171	0x3dd485dd	0.10377095
172	0x3a56fc98	0.00082010916
173	0x3d9f960e	0.077922925
174	0xbcbdd2a4	-0.02317173
175	0x3d0f7f8b	0.035033744
176	0x3dff7a1f	0.124744646
177	0x3de0b3b3	0.10971775
178	0xbe650ac3	-0.22367387
179	0xbd817b54	-0.06322351
180	0x3dd393e6	0.10330944
181	0x3ea0601b	0.31323323
182	0xbe9aa609	-0.302048
183	0xbd731a31	-0.05935115
184	0xbda36fc1	-0.079803
185	0x3e1969d3	0.14981775
186	0xbe8687d5	-0.26275507
187	0x3df8e60a	0.121532515
188	0xbe0a3df6	-0.13500199
189	0xbb2a5bbd	-0.0025994622
190	0xbe168602	-0.14699557
191	0x3d8d6ce3	0.06905534
192	0xbe260836	-0.1621407
193	0x3e027a0d	0.12741871
194	0x3dbba680	0.09162617
195	0xbec2f182	-0.3807488
196	0x3de4a78a	0.11164768
197	0x3de32396	0.11090772
198	0x3e42472c	0.18972462
199	0xbdf3b6c6	-0.11900096
200	0x3e7ed162	0.2488456
201	0x3e8a1f05	0.2697679
202	0xbdbb968f	-0.09159576
203	0xbeacd58e	-0.3375668
204	0x3d9fc414	0.07801071
205	0xbc12ac4c	-0.008952212
206	0x3e072070	0.13195968
207	0xbacf6e63	-0.0015825744
208	0xbdb9fe35	-0.09081689
209	0xbdb48094	-0.08813587
210	0xbe242177	-0.16028391
211	0xbe22bc5a	-0.15892163
212	0xbd13b82c	-0.03606431
213	0xbc526d3d	-0.012843427
214	0xbdbe2443	-0.0928426
215	0x3e57a379	0.21058454
216	0x3ea4af67	0.3216507
217	0xbcf293bf	-0.029611466
218	0x3e4831ff	0.19550322
219	0xbdc37a7b	-0.09544846
220	0xbd93a6ef	-0.072095744
221	0xbe8a5a90	-0.2702222
222	0x3bb3ad8f	0.0054833363
223	0x3e4d13d4	0.20027095
224	0x3c8f8eba	0.017524112
225	0x3f095813	0.53650016
226	0x3e219860	0.15780783
227	0xbe743a62	-0.23850396
228	0xbd9a48e7	-0.07533436
229	0x3e3d1432	0.18464735
230	0x3db1166c	0.08646855
231	0x3d11a55f	0.0355581
232	0x3d368c34	0.044567302
233	0xbe8efbec	-0.27926576
234	0xbca52e0e	-0.020163562
235	0x3d9e6ac2	0.07735206
236	0x3cfb705b	0.030693224
237	0xbd4bb4ca	-0.04973296
238	0xbe3c86cb	-0.18410794
239	0xbd98ea8d	-0.07466612
240	0x3d8a63f9	0.067573495
241	0x3e5ef441	0.21772863
242	0x3e64ec47	0.22355758
243	0x3cb29d00	0.021803379
244	0x3d700e73	0.05860753
245	0x3e1e0d11	0.15434672
246	0xbe301b3a	-0.17197886
247	0x3d90ac37	0.070640974
248	0x3d9dd7b1	0.077071555
249	0x3ba3e450	0.005001582
250	0xbe17f919	-0.14841117
251	0xbd141525	-0.036152977
252	0xbd274e34	-0.040846065
253	0xbe8e8124	-0.278329
254	0x3e4a32f9	0.19746007
255	0xbe162e81	-0.14666177

_fc2.bias f4 [32]
0	0xbf861094	-1.0473809
1	0x3e8c8fea	0.27453548
2	0x3d23c8e3	0.039986502
3	0x3ea5e3e4	0.3240043
4	0x3e0dbee3	0.13842349
5	0x3f309d9c	0.6899049
6	0x3ed450b3	0.4146782
7	0x3f0be4dd	0.5464609
8	0x3e9f2f37	0.3109071
9	0x3ec2f7f0	0.38079786
10	0x3dfc6879	0.12324614
11	0xbed0f765	-0.40813747
12	0x3dbdfb29	0.092764206
13	0x3dbf4467	0.093392186
14	0x3e01b9cf	0.12668537
15	0x3d588281	0.052858833
16	0x3d660672	0.05615849
17	0xbdaeb743	-0.08531048
18	0x3ece69e2	0.40315157
19	0x3e1db2d3	0.15400247
20	0x3c2c5969	0.010519364
21	0xbe2062b8	-0.15662658
22	0xbe6ff247	-0.23432265
23	0x3f4732af	0.7781171
24	0x3eb6494c	0.35602796
25	0x3e75bc26	0.23997554
26	0x3eeafd8d	0.4589657
27	0x3eb66d81	0.3563042
28	0x3e86b7fd	0.26312247
29	0x3f0c9d7f	0.5492782
30	0x3cda3bb4	0.026639797
31	0x3ec58a1d	0.38581935

_fc3.weight f4 [6, 32]
0	0x3f014023	0.5048849
1	0xbe580ede	-0.21099421
2	0xbe034aa1	-0.12821437
3	0xbe51be28	-0.20482695
4	0x3eb4ebe6	0.35336226
5	0x3e01cfb8	0.12676895
6	0x3e34269f	0.17592858
7	0x3c9d6e69	0.019217687
8	0x3e43b4f6	0.19112
9	0xbeb9d4fd	-0.3629531
10	0xbe1277de	-0.14303538
11	0xbe10e503	-0.14149861
12	0x3cbe9539	0.023264514
13	0xbc5000ba	-0.012695486
14	0x3de1f029	0.11032135
15	0x3e180277	0.1484469
16	0xbd21bf75	-0.03948923
17	0xbe8b1c13	-0.27169856
18	0x3d8fda43	0.07024052
19	0xbd5ce299	-0.053927038
20	0xbd8a5a67	-0.06755524
21	0xbe4797fc	-0.19491571
22	0xbde7ae73	-0.113125704
23	0x3dfe4525	0.12415532
24	0x3caf7a48	0.021420613
25	0xbde17d49	-0.11010224
26	0x3e5ef92f	0.21774743
27	0x3e13fcf2	0.1445196
28	0xbcfaeada	-0.030629564
29	0xbef8f4ee	-0.48624367
30	0x3b86e07f	0.0041161175
31	0x3d86e852	0.0658728
32	0xbd966cd7	-0.07344978
33	0x3debd5c1	0.1151538
34	0xbca8efd6	-0.020622175
35	0x3d083f47	0.03326347
36	0x3d9e5d6b	0.07732662
37	0x3e905451	0.28189328
38	0xbe03d52a	-0.12874284
39	0x3e03e390	0.12879777
40	0xbe236e5d	-0.15960069
41	0xbc6c98e7	-0.014440752
42	0x3e1bec3d	0.15226837
43	0xbe1851e6	-0.14874992
44	0x3ba65e56	0.0050771637
45	0xbe6f70bd	-0.2338285
46	0xbe6ad9f1	-0.229347
47	0xbe60dec3	-0.21959977
48	0xbe0dadc4	-0.13835818
49	0x3dec948b	0.1155177
50	0xbb685f53	-0.0035457208
51	0xbe7767d8	-0.24160707
52	0xbe70cd94	-0.23515922
53	0xbd636c63	-0.055523288
54	0xbe12d791	-0.14340045
55	0x3d0ae085	0.033905525
56	0xbe0a883f	-0.13528536
57	0x3e3bdcad	0.183459
58	0x3e3538c3	0.17697434
59	0xbde8da04	-0.11369708
60	0x3e27e3e5	0.16395529
61	0x3e907d42	0.28220564
62	0x3ec7a125	0.3899013
63	0x3d653bf7	0.05596539
64	0x3d75ddd7	0.060026016
65	0x3ca6cd8e	0.020361688
66	0xbce1ef59	-0.02757995
67	0x3c383b8d	0.011244667
68	0x3e29ca03	0.16580968
69	0xbe159882	-0.14608958
70	0xbc9ad6d7	-0.018901272
71	0xbe28a431	-0.16468884
72	0x3dc3ea52	0.095661774
73	0xbddaf59c	-0.106913775
74	0xbce1e9b0	-0.027577251
75	0xbd80e130	-0.06292951
76	0x3df40c4b	0.11916407
77	0x3dd8f205	0.105930366
78	0x3e5c1660	0.2149291
79	0x3d92772b	0.07151636
80	0xbdbc0955	-0.091814674
81	0x3de72ae1	0.112874754
82	0x3d8fbb24	0.07018116
83	0xbd61dc1d	-0.055141557
84	0x3e1d5d3b	0.15367596
85	0x3d90f3d9	0.0707776
86	0x3d77fb63	0.060542475
87	0xbec16a08	-0.37776208
88	0x3ddb1767	0.10697823
89	0xbe331d7d	-0.17491718
90	0xbd706758	-0.058692306
91	0x3d85e331	0.06537474
92	0x3ca9d793	0.020732677
93	0xbe84cd6f	-0.25937983
94	0x3d87013c	0.06592032
95	0xbe680c63	-0.22660975
96	0x3f56d6b2	0.8392135
97	0xbf37885f	-0.7169246
98	0x3d7d446a	0.061832823
99	0x3eb36ec7	0.35045454
100	0xbd365e11	-0.044523302
101	0x3e086871	0.13321091
102	0x3ec05db7	0.375715
103	0xbe076c74	-0.13224965
104	0x3e98fe81	0.2988167
105	0x3d4821ce	0.048860364
106	0x3dbb208d	0.09137068
107	0x3e8aac48	0.27084565
108	0xbedeb7ea	-0.4349969
109	0x3ec132f4	0.37734187
110	0x3e10aca5	0.14128359
111	0xbe1c3b21	-0.15256931
112	0xbcbb8b28	-0.022893503
113	0xbeee0363	-0.4648696
114	0xbd1b552e	-0.03792303
115	0xbd2b1118	-0.04176435
116	0xbdfa30a1	-0.122163065
117	0xbd3d5e95	-0.04623278
118	0xbf157346	-0.5837902
119	0x3e591574	0.2119959
120	0x3e23b27c	0.15986055
121	0xbdaff1e6	-0.0859106
122	0x39fae7fa	0.00047856552
123	0xbca22c8e	-0.019796636
124	0xbe8b6e35	-0.2723252
125	0x3d11cbeb	0.035594862
126	0xbde5b0fd	-0.112153985
127	0x3de8616e	0.11346708
128	0xbe8a36f6	-0.26995057
129	0x3f0ecb14	0.5577862
130	0xbf089067	-0.5334534
131	0xbdf3a37b	-0.11896416
132	0x3e07419d	0.13208623
133	0xbeed7851	-0.46380857
134	0x3e899ccb	0.26877436
135	0x3ec36bab	0.38168082
136	0xbd978339	-0.073980756
137	0xbc92cd04	-0.017920025
138	0xbeba3d2f	-0.36374804
139	0x3d84eccf	0.0649048
140	0xbe48698e	-0.19571516
141	0x3e174966	0.14774093
142	0xbe8e025f	-0.27736184
143	0x3cfbfa5b	0.030759027
144	0xbd8fdc87	-0.07024484
145	0x3e516535	0.20448764
146	0xbe39d7d2	-0.18148735
147	0x3e694500	0.22780228
148	0x3e82bf2b	0.25536475
149	0x3d98cece	0.0746132
150	0x3e265dfa	0.16246787
151	0x3e9a2a7c	0.30110538
152	0x3e2d7980	0.1694088
153	0xbe16bff5	-0.14721663
154	0xbe424146	-0.18970212
155	0xbebda14b	-0.3703712
156	0xbe1d7cce	-0.1537964
157	0xbe65ccbd	-0.22441383
158	0x3e20f940	0.15720081
159	0x3e1b046e	0.15138409
160	0xbd729c16	-0.059230886
161	0x3e1674d9	0.14693011
162	0xbdd0308e	-0.10165511
163	0x3dd171bd	0.10226772
164	0xbd42e34e	-0.047580056
165	0xbdc2ee91	-0.09518159
166	0x3dd0ef02	0.10201837
167	0xbbd23366	-0.0064148186
168	0x3d7017bd	0.05861639
169	0x3d66430c	0.056216285
170	0xbdde867e	-0.10865496
171	0x3ddef45e	0.10886453
172	0xbe4544a6	-0.19264469
173	0x3e5b18b9	0.2139615
174	0xbe0d3f7c	-0.13793749
175	0xbe466689	-0.19375052
176	0xbda95a3d	-0.08269165
177	0xbdc75389	-0.0973273
178	0xbe8beeee	-0.27330726
179	0x3e62839d	0.22120519
180	0x3d26bf3e	0.040709727
181	0x3e092a91	0.13395144
182	0xbcf8051e	-0.030275878
183	0x3ec291c8	0.38001847
184	0x3e6d594f	0.231786
185	0x3e0e10a5	0.13873537
186	0x3cd5ffc7	0.02612294
187	0xbe97101e	-0.29504484
188	0xbdbbad68	-0.09163934
189	0x3d2c0443	0.04199625
190	0xbbf18517	-0.007370602
191	0xbe457b19	-0.1928524

_fc3.bias f4 [6]
0	0xbe5f71d9	-0.21820773
1	0x3e0ac357	0.13551079
2	0xbe5b3695	-0.2140754
3	0x3ed345e3	0.41264257
4	0x3d1db825	0.038505692
5	0xbd4a416f	-0.04937881
