hw1/data/results/session_walker2d_pytorch/checkpoint.pth (torch_old, 8413 bytes, 6 tensors)

_fc1.weight f4 [32, 17]
0	0x3e5fba65	0.21848448
1	0x3eb4bb74	0.35299265
2	0xbf367c81	-0.7128373
3	0xbe750b2a	-0.2393004
4	0xbf302668	-0.68808603
5	0xbe07b799	-0.1325363
6	0xbe5b50f2	-0.21417597
7	0x3f60da09	0.87832695
8	0xbe327bd8	-0.17430055
9	0xbe087707	-0.13326655
10	0xbe46800e	-0.19384786
11	0xbc5e4489	-0.013566145
12	0xbd9eebe8	-0.07759839
13	0xbb69426d	-0.0035592571
14	0x3df8b475	0.121437944
15	0xbc83d4a0	-0.016092598
16	0x3da1bc03	0.078971885
17	0xbe455b5a	-0.19273129
18	0xbf9f0f68	-1.2426577
19	0xbecc7462	-0.39932543
20	0xbfefd5f0	-1.8737164
21	0xbf12b0ec	-0.5730121
22	0xbfb7c563	-1.4357113
23	0x3e1c82d1	0.15284277
24	0xbf2cff12	-0.67576706
25	0x3e23b8c3	0.1598845
26	0x3de435bf	0.11143064
27	0xbdccdd91	-0.10003198
28	0xbb3a48c8	-0.0028424729
29	0xbc623f1e	-0.013808994
30	0x3d10f8d5	0.035393555
31	0xbd7bafbc	-0.06144689
32	0x3d3c320a	0.04594616
33	0x3d699e90	0.057035983
34	0xbd85381b	-0.06504842
35	0x3e89ce93	0.26915416
36	0x3e46fecd	0.19433136
37	0x3ee8a57e	0.4543876
38	0xbe641299	-0.2227272
39	0xbf1d262b	-0.61386365
40	0xbf6ede5f	-0.9330806
41	0xbd833830	-0.06407201
42	0xbe63e90a	-0.22256866
43	0x3e678dbc	0.22612661
44	0xbd125c6f	-0.035732683
45	0xbe0c9f53	-0.13732652
46	0xbcb70dce	-0.02234545
47	0x3d553d8f	0.05206066
48	0x3dea8193	0.114504956
49	0xbd2ec246	-0.042665742
50	0xbc7b14c6	-0.015324777
51	0xbe825824	-0.2545787
52	0x3ed102dd	0.40822497
53	0xbf4b1bef	-0.793395
54	0x3ff45214	1.9087548
55	0x3de4b613	0.111675404
56	0xbe5fd78b	-0.21859567
57	0x3fa1cd4c	1.2640777
58	0xbec32de7	-0.38120958
59	0xbe1f0a43	-0.15531258
60	0x3e96f014	0.2948004
61	0xbc94e68b	-0.018176338
62	0xbe182d79	-0.14861096
63	0x3de52049	0.111877985
64	0x3c328647	0.010896272
65	0x3d9e885e	0.07740854
66	0xbe1aaa5d	-0.15104051
67	0x3cf1ed47	0.029532088
68	0x3f410a7c	0.7540662
69	0x3f418d7b	0.7560651
70	0x3dbf9aca	0.093556955
71	0x3e282a4e	0.16422388
72	0x3f9583b4	1.1680818
73	0xbfbf709f	-1.4956244
74	0xbdb9bcd8	-0.09069222
75	0xbe408ca4	-0.1880365
76	0x3dc4abed	0.09603105
77	0xbf356b1c	-0.7086656
78	0x3da28a4f	0.079365365
79	0x3cd7a837	0.026325328
80	0xbd6d37dd	-0.057914604
81	0x3d2c946a	0.042133726
82	0x3cf00ebd	0.029303903
83	0xbe18ed86	-0.14934358
84	0x3d2c1750	0.04201442
85	0xbfccf925	-1.6013533
86	0x3e7bfabf	0.24607371
87	0x3e190676	0.14943871
88	0x3f2ee2f4	0.68315053
89	0xbd6dac9b	-0.058025938
90	0xbfb9aeb8	-1.4506445
91	0x3e61f76e	0.22067043
92	0x3ed0e7dd	0.40801898
93	0x3dbd4280	0.092411995
94	0xbe204d58	-0.15654504
95	0xbd3c2be9	-0.045940313
96	0x3d2b4b7e	0.04182004
97	0x3c5f7739	0.013639265
98	0xbc4cc171	-0.012497292
99	0xbd9f7fd7	-0.077880554
100	0xbcd8055f	-0.026369749
101	0x3ae1222f	0.0017176325
102	0x4016924a	2.3526788
103	0xbf371be6	-0.71526945
104	0x3fa0184f	1.2507418
105	0x3e41ca23	0.18924765
106	0xbf09ad74	-0.53780293
107	0xbfe066d7	-1.7531384
108	0xbf26f7cb	-0.6522185
109	0xbeb3ccd3	-0.35117206
110	0x3c84f99c	0.016232304
111	0x3e81ecca	0.25375968
112	0xbce58ded	-0.028021777
113	0x3de4e9a8	0.11177379
114	0x3d1ab454	0.03776963
115	0xbd22e67c	-0.03977059
116	0xbd1aefb3	-0.03782625
117	0xbc9b678e	-0.018970277
118	0xbcedb64f	-0.029017596
119	0x3fff19a3	1.9929699
120	0xbfb4cf0e	-1.4125688
121	0x3fb53e27	1.4159592
122	0xbf65f0b9	-0.8982044
123	0xbd399497	-0.045307722
124	0xbceeddce	-0.0291585
125	0xbd9d54f1	-0.07682217
126	0xbf024060	-0.5087948
127	0xbe725a52	-0.23667267
128	0x3e3bd62c	0.18343419
129	0xbd9999da	-0.07500048
130	0x3d216bff	0.039409634
131	0x3db85c82	0.090020195
132	0xbd3c5dfe	-0.045988075
133	0x3ce5bfc5	0.028045544
134	0x3de1e5b6	0.11030142
135	0xbc37a373	-0.011208403
136	0x401df7a0	2.4682388
137	0xbe349194	-0.17633659
138	0xbd15932c	-0.036517307
139	0x3ea1c1e4	0.3159324
140	0x3ef7152d	0.48258343
141	0xbee0b40d	-0.43887368
142	0x3f150749	0.5821424
143	0x3cd4a2b6	0.025956493
144	0xbe2052fc	-0.15656656
145	0x3dce5daf	0.100764625
146	0x3ceb87d7	0.028751297
147	0xbcf25b94	-0.029584683
148	0x3c32ce3f	0.010913431
149	0x3c5693b5	0.01309674
150	0x3c2883d5	0.010285337
151	0x3c9a68a5	0.018848727
152	0xbd471a71	-0.0486092
153	0xbf4efcc9	-0.8085447
154	0x3ee8b20e	0.45448345
155	0xbf99c4ec	-1.2013221
156	0x3f3ddd4a	0.74165785
157	0xbe30d701	-0.17269517
158	0x3f4c5281	0.7981339
159	0xbf23019e	-0.6367434
160	0xbe2d0cf3	-0.16899471
161	0xbf146f6b	-0.5798251
162	0x3f1022b3	0.56302947
163	0xbde84048	-0.11340386
164	0x3cb0f413	0.021600759
165	0x3d194872	0.037422605
166	0xbc6269bb	-0.013819153
167	0x3dc918c3	0.09819176
168	0xbde7a7ac	-0.11311278
169	0xbd92a5cb	-0.07160529
170	0x4005c85d	2.0903542
171	0xbf91db85	-1.1395117
172	0xbe35fd34	-0.1777237
173	0xbf58cef1	-0.8469077
174	0x3e636b54	0.22208911
175	0x404ba55f	3.1819685
176	0x3ccfc12c	0.025360666
177	0xbe9fc1b9	-0.31202486
178	0x3e819aca	0.25313407
179	0x3e0020b6	0.12512478
180	0x3c92794e	0.017880108
181	0xbc4384ef	-0.011933549
182	0x3c1fdad0	0.009756759
183	0xbd4d7e6d	-0.050169397
184	0x3dbd6a92	0.09248842
185	0x3ca4b63f	0.020106433
186	0xbb8e1f92	-0.0043372596
187	0x3e6787c2	0.22610381
188	0xbeca3da8	-0.39500165
189	0xbf1ada34	-0.604892
190	0x3f882c78	1.0638571
191	0x3f915086	1.1352699
192	0xbf592365	-0.8481963
193	0x3ecefce8	0.40427327
194	0xbf734a96	-0.95035684
195	0xbd402f2c	-0.046919987
196	0x3cad6893	0.021168029
197	0xbe02cbb4	-0.12773019
198	0x3c80726b	0.015679559
199	0xbc6f6bc0	-0.014613092
200	0xbb83ba69	-0.0040200246
201	0x3db6dad4	0.08928457
202	0x3d87dcac	0.06633887
203	0xbd5c51d7	-0.053788986
204	0xbfe27821	-1.769291
205	0x401ca0f5	2.447324
206	0x3f024aae	0.508952
207	0x3f20ff44	0.62889504
208	0x3e8116da	0.25212747
209	0xbfa6f4cf	-1.304346
210	0xbf28d28b	-0.65946263
211	0xbeecb22f	-0.46229693
212	0x3f0b2e2e	0.5436734
213	0xbe2ec0a4	-0.17065674
214	0x3ceb13b9	0.028695928
215	0x3d1e91c9	0.03871325
216	0x3d65dd0c	0.05611901
217	0xbc493335	-0.012280275
218	0xbd58dfbb	-0.05294774
219	0xbdbc4ef5	-0.09194747
220	0xbac761b2	-0.0015211611
221	0x3f0fb509	0.5613561
222	0xbe567121	-0.20941593
223	0xbe6165fc	-0.2201156
224	0xbfbf7885	-1.4958655
225	0xbe387090	-0.18011689
226	0x400e4435	2.222913
227	0x3f317919	0.69325405
228	0xbee3ba47	-0.44478056
229	0x3d561d7c	0.052274212
230	0xbeb988e5	-0.36237255
231	0x3dc85c30	0.09783208
232	0xbc9cc3d0	-0.01913634
233	0xbbfe551f	-0.007761612
234	0x3d69a577	0.057042565
235	0xbcee8aa9	-0.029118853
236	0x3ca9cb64	0.020726867
237	0xbd278973	-0.040902566
238	0x3fab86fd	1.340057
239	0x3f916423	1.1358684
240	0xbf79559b	-0.9739625
241	0x3e91a33d	0.28444853
242	0x3c6cfbaa	0.014464298
243	0x3dcf77fc	0.10130307
244	0x3ebb73bd	0.3661174
245	0xbeb7f0ab	-0.35925803
246	0x3d73107d	0.059341896
247	0x3c71c42e	0.014756246
248	0x3d89180b	0.06694039
249	0xbb7fcc8b	-0.003903183
250	0xbd0490a9	-0.03236452
251	0xbbc9552b	-0.006144186
252	0x3d1c9203	0.038225185
253	0x3c8d262f	0.017230121
254	0xbd233e27	-0.039854195
255	0xbfe48f60	-1.7856255

_fc1.bias f4 [32]
0	0x3f6c6442	0.9234048
1	0xbf02f613	-0.5115673
2	0x3e528c23	0.2056127
3	0x3f01754a	0.50569594
4	0xbee76c2b	-0.45199713
5	0x3ffb8e25	1.9652754
6	0xbf48065f	-0.7813472
7	0xbf09da13	-0.5384838
8	0xbf79ddf3	-0.9760429
9	0x3e3240a4	0.17407471
10	0xbfa61551	-1.2975255
11	0x3ed3d222	0.41371256
12	0x3f8566cf	1.0422
13	0x3f2e7be4	0.6815779
14	0xbfa0dcfe	-1.2567441
15	0x3f8818ac	1.0632529
16	0xbfa5850d	-1.2931229
17	0xbedd6a30	-0.43245077
18	0xbfd4e317	-1.6631802
19	0xbf94605e	-1.1591909
20	0xbf7799bb	-0.9671895
21	0x402b6f61	2.678673
22	0x401147df	2.2700117
23	0xbf26e854	-0.65198255
24	0xbf4c2a20	-0.7975178
25	0x4014c264	2.3243647
26	0x3f998b16	1.1995571
27	0xbf21d223	-0.6321127
28	0xbe46b9f3	-0.19406871
29	0x3f6da891	0.92835337
30	0x3f161c78	0.5863719
31	0x40176ff7	2.3662088

_fc2.weight f4 [32, 32]
0	0x3d3238b1	0.043511096
1	0xbe03baf2	-0.12864283
2	0xbd8368f6	-0.06416504
3	0xbf219d09	-0.6313024
4	0x3e815400	0.252594
5	0x3e4cb4b5	0.1999081
6	0xbf6083b7	-0.8770098
7	0x3d957e81	0.07299519
8	0xbd750213	-0.05981643
9	0xbe88c6f5	-0.26714292
10	0xbeb4078c	-0.35162008
11	0x3d5db95b	0.054131847
12	0xbda9de8a	-0.08294399
13	0x3e89632f	0.26833484
14	0xbf06d3e3	-0.52667063
15	0x3d089935	0.033349235
16	0x3d1d7bf8	0.038448304
17	0xbdd6e299	-0.10492439
18	0xbf4d544d	-0.8020676
19	0xbe135b89	-0.14390387
20	0x3e4ddb78	0.20103252
21	0x3f6006d2	0.87510407
22	0x3f424e2e	0.7590054
23	0xbccbe2c5	-0.024888406
24	0xbd7657ae	-0.06014221
25	0xbf1c3bff	-0.61029047
26	0xbe9885f9	-0.29789713
27	0x3d1f9495	0.03896006
28	0x3ef26d3b	0.4734896
29	0xbe45cc4d	-0.19316216
30	0xbcd8040b	-0.026369115
31	0x3eeddf5b	0.4645947
32	0xbd81ec58	-0.06343907
33	0xbbe01f67	-0.006839681
34	0xbd869895	-0.065720715
35	0xbcc14914	-0.023594417
36	0x3e737bd5	0.23777707
37	0x3f1bb6ec	0.6082599
38	0x3ed4b275	0.41542402
39	0x3e0807fc	0.13284296
40	0x3e53cd56	0.20683798
41	0xbcd1518f	-0.025551585
42	0x3f7cbbe4	0.987242
43	0xbb50a02c	-0.003183375
44	0xbf34fb7b	-0.7069623
45	0x3e9f12bc	0.3106898
46	0x3deafe4d	0.11474285
47	0xbddc22c7	-0.10748821
48	0x3e02172e	0.12704155
49	0x3d689621	0.0567838
50	0x3e902069	0.28149727
51	0x3d39741c	0.045276746
52	0xbcac2161	-0.02101201
53	0xbe568879	-0.20950498
54	0xbd840747	-0.064467005
55	0x3e42d897	0.19027935
56	0xbe3d7a38	-0.18503654
57	0xbe920571	-0.28519776
58	0xbdcf4dc2	-0.10122253
59	0x3d2b47cc	0.041816518
60	0xbe55cd9d	-0.20879216
61	0xbea0fb7d	-0.3144187
62	0xbe9094b8	-0.28238463
63	0xbf4685d1	-0.7754794
64	0x3c87bc17	0.01656918
65	0xbd0772f7	-0.033068623
66	0x3d3a73ee	0.045520715
67	0xbe01a0e7	-0.12659036
68	0x3e3251be	0.17413995
69	0x3bd9e782	0.0066499123
70	0x3f6c1e96	0.9223417
71	0x3e6bfdc5	0.23046024
72	0x3e9fcc40	0.31210518
73	0xbeae88ca	-0.34088737
74	0x3ebb6f5d	0.366084
75	0xbda93bbd	-0.08263347
76	0xbf0a6de1	-0.5407391
77	0x3d1edb55	0.03878339
78	0x3e430d2d	0.19047995
79	0x3e6b8214	0.2299884
80	0x3effb8b9	0.4994562
81	0x3e0a1fd0	0.13488698
82	0x3e01f947	0.12692748
83	0x3dab6bdb	0.08370181
84	0x3cba2f35	0.022727588
85	0xbe941c6a	-0.28927928
86	0x3e1be58f	0.15224288
87	0x3ccc7f31	0.024962993
88	0xbe8db7c9	-0.2767928
89	0x3d82bffe	0.06384276
90	0xbd94b897	-0.0726177
91	0xbd8e0576	-0.06934635
92	0xbe7a946c	-0.24470681
93	0x3f162507	0.5865025
94	0xbef4ba68	-0.47798467
95	0xbf4fd667	-0.81186527
96	0x3e918606	0.28422564
97	0xbea45ac1	-0.3210049
98	0xbe1edf8b	-0.15514962
99	0x3e62ad90	0.22136521
100	0xbe5cada5	-0.21550615
101	0xbe79647d	-0.2435474
102	0x3e400176	0.18750557
103	0x3d97d3c7	0.0741344
104	0xbebb2b48	-0.36556458
105	0xbdf6e2e8	-0.12054998
106	0x3e6268b1	0.22110249
107	0xbe977a3a	-0.2958544
108	0x3e400a12	0.18753842
109	0x3e53962a	0.20662752
110	0xbbffafa0	-0.0078029186
111	0xbed66654	-0.41874945
112	0x3e992edb	0.2991856
113	0xbc96d63f	-0.018412707
114	0x3e13b739	0.14425363
115	0x3cf5d1a0	0.030007184
116	0x3861efd8	5.3867552e-05
117	0x3f3a8d52	0.7287189
118	0xbec98c7c	-0.39364994
119	0xbf3c57a7	-0.73571247
120	0xbe6d3414	-0.23164397
121	0xbedbcb42	-0.4292851
122	0x3de461a8	0.11151439
123	0xbd2a50f3	-0.041581105
124	0x3e645864	0.22299343
125	0xbde880f0	-0.11352718
126	0x3dbf5baa	0.093436554
127	0x3eb83176	0.35975236
128	0xbeab0c80	-0.33407974
129	0x3c5d29a3	0.0134986965
130	0x3e11c2bb	0.1423444
131	0xbdb3e397	-0.08783644
132	0xbea80760	-0.32818127
133	0xbead5c10	-0.338593
134	0x3d4a631e	0.04941093
135	0xbea4110d	-0.3204426
136	0xbdb1f1b9	-0.08688683
137	0x3dce9e92	0.10088839
138	0x3efc3ca5	0.49265018
139	0x3e35cbbd	0.17753501
140	0xbe3802ba	-0.1796979
141	0x3ea88e28	0.32920957
142	0xbecb3e2a	-0.39695865
143	0x3e31ad5c	0.17351288
144	0x3dab99d4	0.0837895
145	0xbeb90273	-0.3613468
146	0x3ebf6b4f	0.37386557
147	0x3e63813d	0.22217269
148	0xbf44a1c4	-0.76809335
149	0x3e8350d0	0.25647593
150	0x3f3175ca	0.69320357
151	0xbeb77f41	-0.35839275
152	0x3e1b7621	0.15181781
153	0xbe742992	-0.23843983
154	0x3efbef71	0.49206117
155	0x3cf032f8	0.029321179
156	0x3e3dc635	0.18532641
157	0xbd3e5be4	-0.046474352
158	0x3e4370a8	0.19085944
159	0x3eed94ab	0.46402487
160	0xbdc2829a	-0.094975665
161	0x3e345d03	0.17613606
162	0x3df42fe3	0.11923196
163	0xbec8d617	-0.39225838
164	0xbd3903ed	-0.04516976
165	0xbc2a9323	-0.010411057
166	0x3de8dd2c	0.1137031
167	0xbe5a4050	-0.21313596
168	0x3f2a7579	0.665855
169	0x3e71ff5a	0.23632565
170	0xbdfe8f75	-0.12429706
171	0x3a54dec4	0.0008120353
172	0x3e26aec7	0.1627761
173	0xbe2d1482	-0.16902354
174	0xbec44a19	-0.38337782
175	0xbe040fa3	-0.1289659
176	0x3ddc2116	0.10748498
177	0x3e621841	0.22079565
178	0xbd29bc32	-0.041439243
179	0x3dc81ef7	0.09771531
180	0xbf09e938	-0.5387149
181	0x3e5135a8	0.20430624
182	0xbf35bdbe	-0.7099265
183	0xbea8e32e	-0.32985824
184	0xbec22ba6	-0.37923926
185	0x3df9304b	0.12167414
186	0x3e8c95ec	0.2745813
187	0xbd92c22a	-0.0716594
188	0x3f5a043c	0.8516271
189	0xbf098b3c	-0.5372808
190	0x3e9ba693	0.30400524
191	0x3ec21ec9	0.37914112
192	0xbdc55364	-0.09635046
193	0xbd50649c	-0.0508772
194	0x3f02c3b6	0.5107988
195	0xbe1599c4	-0.14609438
196	0xbd3fca32	-0.046823688
197	0x3e6eebd4	0.23332149
198	0xbd0fee88	-0.03513959
199	0x3e757cea	0.23973432
200	0x3e1632dc	0.14667839
201	0xbedc902f	-0.43078753
202	0x3e543984	0.20725065
203	0xbe864e97	-0.26231834
204	0xbde7a23e	-0.11310242
205	0xbccd3e53	-0.025054133
206	0xbe6507c6	-0.22366247
207	0xbeaa480d	-0.33258095
208	0x3c355305	0.011067157
209	0x3e77c357	0.2419561
210	0xbd8aa815	-0.0677034
211	0xbf0e2245	-0.5552104
212	0xbddb9e9e	-0.10723613
213	0xbd729e54	-0.059233025
214	0x3f1670b0	0.587657
215	0x3e7b947c	0.24568361
216	0x3cb3ad9c	0.02193337
217	0xbeff69cb	-0.498854
218	0xbe95f7d5	-0.29290643
219	0x3f15f22f	0.5857267
220	0xbea41eea	-0.32054836
221	0xbe326c72	-0.17424181
222	0xbe15c8b7	-0.14627348
223	0xbcad2b01	-0.02113867
224	0x3f0dd684	0.5540545
225	0x3e61b20a	0.22040573
226	0x3ebacace	0.36482853
227	0xbe6260c3	-0.22107224
228	0x3e81f3be	0.25381273
229	0xbcf1e977	-0.02953027
230	0xbe8140d7	-0.2524478
231	0x3f05bcd1	0.52241236
232	0xbed45c8b	-0.41476855
233	0xbea82622	-0.32841593
234	0x3e97abac	0.29623163
235	0xbe0ee43f	-0.13954256
236	0x3e8febd9	0.28109625
237	0xbe30c222	-0.17261556
238	0x3dab036b	0.08350261
239	0xbe4c63c0	-0.19959927
240	0x3f30f70a	0.6912695
241	0x3eebf77e	0.4608726
242	0x3debf7e7	0.11521893
243	0x3e6dac0c	0.23210162
244	0x3ea2efd8	0.3182361
245	0xbedfc99d	-0.43708506
246	0x3e91e352	0.28493744
247	0xbe384050	-0.17993283
248	0xbe5852d1	-0.21125342
249	0x3e24d44f	0.16096614
250	0xbf32045a	-0.6953789
251	0x3eac2f97	0.33630058
252	0x3e966f7f	0.2938194
253	0xbee7b0c4	-0.4525205
254	0xbdf12c23	-0.117759965
255	0x3d74c004	0.059753433

_fc2.bias f4 [32]
0	0x3f9685e0	1.1759605
1	0xbdc961ba	-0.09833093
2	0xbf5cd2b7	-0.86259025
3	0x3f715056	0.9426321
4	0xbdc92810	-0.098220944
5	0x3f74f8c5	0.9569209
6	0x3fb0bd34	1.380774
7	0xbf183863	-0.5946104
8	0x3eba15be	0.36344713
9	0x3fac5068	1.3462038
10	0xbe59ed0d	-0.21281834
11	0x3f7cba0d	0.9872139
12	0x3ecdda71	0.4020572
13	0x3d34aab2	0.0441081
14	0x3f9e9f8a	1.2392437
15	0xbefe4606	-0.496628
16	0x3db157fe	0.08659361
17	0xbae508f2	-0.0017473979
18	0xbe3bb708	-0.1833154
19	0xbf1015ae	-0.5628308
20	0xbee81bd8	-0.45333743
21	0xbf05f697	-0.5232939
22	0xbe707de4	-0.23485523
23	0x3fd92924	1.696568
24	0x3eb960ea	0.36206752
25	0x3e686488	0.226946
26	0x3ea54277	0.3227727
27	0x3ec9e4b9	0.39432314
28	0xbf46a040	-0.7758827
29	0xbf7c8a03	-0.9864809
30	0x3f5e95ee	0.86947525
31	0x3fa8c747	1.3185815

_fc3.weight f4 [6, 32]
0	0x3ee3a42b	0.44461188
1	0x3bd426f7	0.0064743715
2	0xbf17d3b3	-0.593074
3	0xbe032a66	-0.12809142
4	0x3da950bb	0.08267351
5	0xbdf38529	-0.11890633
6	0xbe54b5a1	-0.20772411
7	0xbeb1dff8	-0.34741187
8	0x3e4098e0	0.18808317
9	0xbe9eeb59	-0.3103893
10	0xbed8e08b	-0.42358813
11	0xbf002d39	-0.50069004
12	0x3c7623df	0.015023201
13	0xbecf8c39	-0.4053667
14	0x3dea8867	0.11451798
15	0x3f148919	0.58021694
16	0xbd94e89f	-0.072709315
17	0xbec17129	-0.37781647
18	0x3d188ef7	0.037245717
19	0x3e6f51ea	0.23371091
20	0xbf07dc19	-0.5307022
21	0xbed1f8a4	-0.4101001
22	0x3e1c9014	0.15289336
23	0x3ecbfb19	0.3984001
24	0x3d955046	0.072907016
25	0x3e983fa1	0.29736045
26	0x3e6e39c8	0.2326423
27	0x3e83b445	0.25723472
28	0xbbbb1eb3	-0.0057104467
29	0x3f147736	0.579944
30	0xbedac1b3	-0.42725906
31	0x3e9e05d8	0.30863833
32	0xbe3973ba	-0.18110552
33	0x3e28776a	0.16451803
34	0xbd11d8c9	-0.035607133
35	0x3cbbf272	0.022942755
36	0xbdc2c99d	-0.09511111
37	0xbe91976d	-0.2843584
38	0x3e7f6c65	0.24943693
39	0x3e456f10	0.19280648
40	0xbdb9829e	-0.090581164
41	0xbe23fad4	-0.16013652
42	0x3c6ea12a	0.014564792
43	0x3db2945b	0.08719703
44	0xbde1afd1	-0.110198624
45	0x3c3b3613	0.0114264665
46	0xbf02e832	-0.5113555
47	0xbe627b67	-0.22117387
48	0xbe219ee6	-0.15783271
49	0x3e8db03e	0.27673525
50	0xbd4b0b6e	-0.049571447
51	0xbe441f81	-0.19152643
52	0xbd44869e	-0.047979943
53	0x3dd4575b	0.10368224
54	0xbe90bad5	-0.28267542
55	0x3e5c29b1	0.21500279
56	0x3d308762	0.04309786
57	0xbe2c36eb	-0.16817825
58	0x3f0d6892	0.55237687
59	0xbe76dad1	-0.2410691
60	0x3d8efa43	0.069813274
61	0xbccba7a5	-0.024860213
62	0x3f0799f9	0.5296932
63	0x3c1112d4	0.008854587
64	0x3df157f8	0.11784357
65	0x3dc823cf	0.09772455
66	0xbeee9897	-0.46600792
67	0x3e9419f0	0.2892604
68	0xbc24eacb	-0.010065745
69	0xbe05f8d7	-0.13083206
70	0x3f05f588	0.52327776
71	0xbea456a9	-0.32097366
72	0xbe305b5f	-0.17222355
73	0x3d28c8e7	0.04120722
74	0x3e105baa	0.14097467
75	0xbe1533ec	-0.14570588
76	0xbe9e60b0	-0.30933142
77	0xbd4188d2	-0.047249623
78	0xbd110994	-0.035409525
79	0x3eaf719c	0.34266365
80	0xbd73dac3	-0.0595348
81	0xbe63c17c	-0.22241777
82	0x3d6028f6	0.054726563
83	0x3c5964ea	0.013268689
84	0x3e5f299e	0.2179322
85	0xbe63554f	-0.22200511
86	0x3ea4192f	0.32050464
87	0xbeec58ca	-0.4616149
88	0x3ee30b29	0.44344452
89	0xbd7444a8	-0.05963579
90	0x3e8a24f2	0.26981312
91	0x3e945a43	0.28975114
92	0xbcd2f8cd	-0.025753403
93	0x3eaea1af	0.3410773
94	0xbe1bb490	-0.15205598
95	0xbf32d323	-0.6985342
96	0x3d614b24	0.0550033
97	0xbf06b564	-0.5262053
98	0x3e8a3604	0.26994336
99	0xbc3c6b5c	-0.011500206
100	0xbe5181be	-0.20459649
101	0x3e7e8c07	0.24858104
102	0x3dc5e5aa	0.096629456
103	0xbdf63694	-0.12022129
104	0x3c7cbfb6	0.015426567
105	0x3d9f3776	0.0777425
106	0x3cc30136	0.023804288
107	0x3dce3c36	0.10070078
108	0xbe937bf1	-0.28805497
109	0x3e022097	0.12707745
110	0x3e6e11be	0.23248956
111	0xbd6033b5	-0.05473681
112	0xbd2c853a	-0.042119242
113	0x3db9d911	0.09074605
114	0x3d180114	0.037110403
115	0x3e6bf014	0.23040801
116	0x3e3e2ad1	0.1857102
117	0xbe03d831	-0.12875439
118	0xbdb6d895	-0.089280285
119	0x3e8dd0b3	0.27698287
120	0x3d409e5f	0.047026034
121	0xbec7ec04	-0.39047253
122	0x3eb37ee4	0.35057747
123	0xbdf86a04	-0.12129596
124	0xbe14afd7	-0.14520203
125	0xbdb8e02c	-0.090271324
126	0xbde8a255	-0.113590874
127	0xbcf2fc88	-0.029661432
128	0x3e0659e4	0.13120228
129	0xbe8e8ec7	-0.27843305
130	0xbeb9bd69	-0.3627732
131	0xbe3d31f0	-0.18476081
132	0x3eccc8f0	0.39997053
133	0xbe28aec8	-0.16472924
134	0xbde64ea7	-0.112454705
135	0x3f105dbb	0.5639302
136	0x3c898726	0.016788077
137	0xbeebc98e	-0.46052212
138	0xbe283b9f	-0.16428994
139	0x3d0b53b6	0.03401538
140	0xbe3f74ee	-0.18696949
141	0x3dc458b2	0.0958723
142	0x3e48f90f	0.19626258
143	0xbe920065	-0.28515926
144	0xbdd3d7ab	-0.1034387
145	0x3e99d1bf	0.30042836
146	0x3db82cbc	0.089929074
147	0x3e97405e	0.29541296
148	0x3f0ab078	0.5417552
149	0xbdffb756	-0.124861404
150	0xbe3935f9	-0.18086995
151	0x3e13cf37	0.14434515
152	0x3ecd4e98	0.40099025
153	0xbda6e211	-0.081485875
154	0xbd9134b4	-0.070901304
155	0xbebefe85	-0.37303558
156	0xbe0a3053	-0.13494997
157	0x3e402d7a	0.18767348
158	0xbd36b859	-0.0446094
159	0xbdb95c4b	-0.090508066
160	0x3ed87347	0.4227545
161	0x3e2ba7de	0.16763255
162	0x3e9b2d86	0.3030817
163	0xbef67ba0	-0.48141193
164	0x3e0eda6e	0.13950512
165	0xbd3bb1fa	-0.04582403
166	0x3d4749bf	0.048654314
167	0x3dfdb9f8	0.12388986
168	0xbf18d57b	-0.59700745
169	0xbec5b6a2	-0.386159
170	0xbe350fb0	-0.17681766
171	0xbd54642f	-0.051853355
172	0xbeb5595e	-0.35419744
173	0x3e172fca	0.14764324
174	0xbd83f0e1	-0.064424284
175	0xbeda2126	-0.42603415
176	0xbd9e7db7	-0.07738822
177	0x3edc4b2c	0.43026102
178	0xbdbb1069	-0.09133989
179	0x3e1328c3	0.14371018
180	0x3e70c494	0.23512489
181	0x3e4faf0d	0.2028162
182	0xbe8f2e3e	-0.27964967
183	0x3ea49f9c	0.32153022
184	0x3de05c9a	0.10955162
185	0xbdddcd46	-0.108301684
186	0xbd59175b	-0.05300079
187	0xbe7e09a1	-0.2480836
188	0x3e7adc3a	0.24498072
189	0xbe4529c5	-0.19254215
190	0x3f0a8057	0.5410208
191	0xbda47aaf	-0.080312125

_fc3.bias f4 [6]
0	0x3f70893a	0.9395939
1	0xbd46c296	-0.048525415
2	0x3e7edc79	0.24888791
3	0x3f86f8d3	1.0544685
4	0xbe3c0bac	-0.18363827
5	0x3eb0e7b3	0.34551772
