hw1/data/results/session_hopper_pytorch/checkpoint.pth (torch_old, 7249 bytes, 6 tensors)

_fc1.weight f4 [32, 11]
0.0077615324 3.4124022 0.6331257 -0.19793312 -0.30837423 0.09386332 -0.17997736 0.5727259
0.012744364 -0.018875329 -0.18424411 0.33869582 -1.1039922 0.18755321 -0.077989 0.3811557
-0.18380764 0.288001 -0.23838791 0.0064084344 0.042667452 0.11050032 -0.19878185 0.057655014
0.37706882 -0.14348616 0.4455621 -0.1418258 -0.38532835 0.4442884 -0.20639127 0.18121718
-0.24640279 -0.19950654 -0.72221655 -1.0228648 0.7889427 0.35701108 0.26485112 0.41164395
-0.19892067 -0.105613664 -0.02209883 -0.22329809 -0.099843234 -2.336726 -1.4849133 0.45526513
-0.1973266 0.17207699 0.45157588 -0.1542641 0.11256914 -0.13487147 0.28935334 -0.073585756
4.0071564 0.93613213 -0.45087677 -0.87305087 0.09827002 0.13923627 -0.2699147 0.064850986
0.17397921 -0.10016208 -0.2691446 2.1476834 -1.5923978 0.086911246 -0.89495325 0.17304502
-0.363966 -0.10032851 0.250092 0.29803842 0.09680654 -0.2867314 2.6736174 -0.44825017
-0.5479921 -0.0043598255 0.4501616 -0.23054782 0.14619687 -0.13880467 -0.0839631 -0.15197098
0.24108009 -2.6294336 0.5357917 0.12549296 0.4921376 0.20142147 -0.3263181 -0.07472289
0.14817232 -0.04276373 -0.22375217 -0.10889599 1.8397404 -0.7016142 1.2858533 -0.9262251
-0.19499013 0.22250359 -0.56990105 -0.15751609 0.10238588 0.06118934 -0.18761243 1.5463796
-2.3002717 0.34842062 0.3213447 -0.065327786 -0.051635865 -0.12026498 0.15090543 -0.11819418
0.18232056 0.21605481 -1.5588552 1.2414322 -0.72031724 0.21359973 -0.0762797 0.1890929
0.013936958 -0.20265482 -0.014716854 0.04010228 -0.281784 2.134214 0.67292094 -0.40315494
0.24297175 -0.048970234 -0.0010033767 0.2905001 0.41647813 0.087871425 0.38233715 0.11399024
-5.516979 -0.018673074 0.45957047 0.050045937 0.0039197756 0.30099773 -0.44523543 -0.23617947
-0.0465328 0.057960674 0.24090998 -3.9680068 -0.45126656 -0.5620162 -0.2636737 -0.25605956
-0.12931292 0.050040346 -0.25354567 -0.30837318 -0.086495936 0.22820075 -1.1244715 0.60364527
0.010838636 0.09303899 0.3705318 -0.28560516 -0.067056835 0.23850445 -0.37082934 0.18308473
-0.09395305 0.18549864 -0.5722774 0.81602305 0.16736011 0.23533873 0.3614006 -0.1614259
0.053857144 0.010186308 -0.07430548 0.15168323 2.1366475 0.7891131 -0.40512338 -0.19749957
-0.29774475 0.008130427 -0.17521891 -0.010728583 -0.30566266 0.16073257 0.09833718 0.9070195
-1.2613788 0.6865076 -1.0646824 -0.094759755 -0.4795233 0.3351931 -0.1878919 0.16040188
0.118631914 0.04673722 -0.45918667 0.21751745 -0.3336206 -0.49888176 0.05840399 -0.12887363
-0.21524945 -0.08014656 0.18732439 -0.1891415 -0.31079692 -2.8180676 0.73232853 -0.38323155
0.026603103 0.35324052 -0.38205227 -0.09789185 -0.06234962 -0.076503806 -0.021494268 0.52774096
0.0867646 -0.033937514 0.31292 0.5019661 0.26106986 -0.4557835 -0.37198707 0.10804195
0.02502764 0.12503622 0.33080038 -0.39472318 1.9986109 -0.78748584 0.2952627 -0.3461103
0.49362272 0.042960804 -0.09245612 -0.19369464 0.22431788 -0.09149126 -1.5986202 -0.36146963
00000000: 7454 fe3b cc64 5a40 8714 223f fbae 4abe
00000010: 3ae3 9dbe 6a3b c03d fc4b 38be 2a9e 123f
00000020: bdcd 503c 6fa0 9abc 7daa 3cbe 8a69 ad3e
00000030: 9e4f 8dbf f30d 403e b2b8 9fbd d726 c33e
00000040: 1238 3cbe de74 933e f61b 74be d8fd d13b
00000050: 11c4 2e3d fe4d e23d 788d 4bbe aa27 6c3d
00000060: 2a0f c13e 09ee 12be b720 e43e c83a 11be
00000070: c249 c5be c579 e33e 3c58 53be ff90 393e
00000080: 0351 7cbe 714b 4cbe 2fe3 38bf 3ced 82bf
00000090: 26f8 493f 28ca b63e 919a 873e ffc2 d23e
000000a0: dcb1 4bbe fa4b d8bd 9b08 b5bc 41a8 64be
000000b0: 9c7a ccbd eb8c 15c0 a411 bebf 8318 e93e
000000c0: fc0f 4abe f334 303e f434 e73e 69f7 1dbe
000000d0: a68a e63d bf1b 0abe 1f26 943e 21b4 96bd
000000e0: a03a 8040 5ba6 6f3f 52d9 e6be 4380 5fbf
000000f0: cb41 c93d f493 0e3e 4232 8abe 98d0 843d
00000100: 9b27 323e c721 cdbd 52cd 89be a573 0940
00000110: b1d3 cbbf 86fe b13d a81b 65bf b732 313e
00000120: c059 babe 0979 cdbd 0f0c 803e 7e98 983e
00000130: 8242 c63d 75ce 92be 8c1c 2b40 0c81 e5be
00000140: 3649 0cbf dedc 8ebb 957b e63e ba14 6cbe
00000150: a2b4 153e d022 0ebe d9f4 abbd 489e 1bbe
00000160: b3dd 763e a448 28c0 a529 093f 3a81 003e
00000170: 76f9 fb3e 6e41 4e3e 2a13 a7be 5108 99bd
00000180: 7cba 173e 0529 2fbd 4a1f 65be dc04 dfbd
00000190: 9d7c eb3f fd9c 33bf d796 a43f 171d 6dbf
000001a0: 7eab 47be fbd7 633e 09e5 11bf e64b 21be
000001b0: b0af d13d aca1 7a3d 791d 40be c4ef c53f
000001c0: a737 13c0 3064 b23e 4b87 a43e 93ca 85bd
000001d0: 2180 53bd 7c4d f6bd f486 1a3e ca0f f2bd
000001e0: 3eb2 3a3e 793d 5d3e 9188 c7bf 40e7 9e3f
000001f0: b666 38bf e3b9 5a3e 8838 9cbd 92a1 413e
00000200: d757 643c bf84 4fbe f61e 71bc 4a42 243d
00000210: fe45 90be f696 0840 8c44 2c3f 536a cebe
00000220: 96cd 783e 0395 48bd bc83 83ba 6ebc 943e
00000230: 9f3c d53e eff5 b33d b2c1 c33e b773 e93d
00000240: 188b b0c0 46f8 98bc d24c eb3e f8fc 4c3d
00000250: 7671 803b 601c 9a3e e6f5 e3be 08d9 71be
00000260: 2d99 3ebd 2c68 6d3d 1bb1 763e d3f3 7dc0
00000270: 690c e7be 4be0 0fbf 3d00 87be 3d1a 83be
00000280: 9b6a 04be 1bf7 4c3d bdd0 81be 17e3 9dbe
00000290: c824 b1bd 75ad 693e afee 8fbf 7f88 1a3f
000002a0: 8994 313c 3a8b be3d 58b6 bd3e d73a 92be
000002b0: 1855 89bd 833a 743e 58dd bdbe 907a 3b3e
000002c0: 756a c0bd 5bf3 3d3e c680 12bf e3e6 503f
000002d0: 7360 2b3e a3fc 703e 8009 b93e d54c 25be
000002e0: 4f99 5c3d 79e4 263c 792d 98bd d952 1b3e
000002f0: d5be 0840 5103 4a3f 556c cfbe 543d 4abe
00000300: 0072 98be 7c35 053c 966c 33be f0c6 2fbc
00000310: d17f 9cbe 1497 243e 0165 c93d 6e32 683f
00000320: dc74 a1bf f6be 2f3f 8347 88bf 6711 c2bd
00000330: 1484 f5be 6e9e ab3e bc66 40be 6440 243e
00000340: 4af5 f23d 876f 3f3d 841a ebbe e5bc 5e3e
00000350: 52d0 aabe 6e6d ffbe 0639 6f3d 73f7 03be
00000360: 5a6a 5cbe e123 a4bd f7d1 3f3e 4fae 41be
00000370: c620 9fbe 385b 34c0 e279 3b3f ed36 c4be
00000380: c0ee d93c f1db b43e 5b9c c3be 867b c8bd
00000390: 5162 7fbd 07ae 9cbd bf14 b0bc 081a 073f
000003a0: a3b1 b13d 1002 0bbd 0d37 a03e da80 003f
000003b0: f3aa 853e 745c e9be 1775 bebe 1945 dd3d
000003c0: c406 cd3c 7f09 003e ab5e a93e 2819 cabe
000003d0: 7bd2 ff3f ac98 49bf ac2c 973e 5f35 b1be
000003e0: 1ebc fc3e abf7 2f3d a259 bdbd e357 46be
000003f0: 96b3 653e c55f bbbd 969f ccbf 8c12 b9be

_fc1.bias f4 [32]
0.1267976 0.45933887 0.16974422 0.11103346 0.14210089 0.27173752 -0.30742306 0.20789947
-0.27287558 -0.27195618 -0.08208572 0.48503542 0.36683288 0.33054924 0.3867053 -0.2359242
-0.1202254 0.15665556 -0.02749922 0.28995872 -0.3599029 -0.07646594 0.1345865 -0.35842386
0.10939248 0.49687892 0.46186748 0.38400832 0.23743652 -0.25987098 0.15559295 0.42446494
00000000: 3bd7 013e 772e eb3e 6ed1 2d3e 8365 e33d
00000010: e582 113e 2e21 8b3e 8e66 9dbe 99e3 543e
00000020: 59b6 8bbe d73d 8bbe 8f1c a8bd 9056 f83e
00000030: 85d1 bb3e c03d a93e 3dfe c53e 1d96 71be
00000040: bc38 f6bd 516a 203e 0b46 e1bc 7875 943e
00000050: 3145 b8be 2d9a 9cbd 0bd1 093e 5583 b7be
00000060: 2a09 e03d ea66 fe3e e579 ec3e bd9c c43e
00000070: 8f22 733e cf0d 85be c253 1f3e 7853 d93e

_fc2.weight f4 [32, 32]
0.039467487 0.19299984 0.084693596 0.052653603 -0.1964486 0.21811168 -0.4065235 -0.048035927
-0.20060441 0.17783462 -0.24434668 0.36096016 0.18737425 0.13056818 -0.07084006 0.17488281
-0.2594183 0.07407232 -0.3503358 0.14714615 0.3505958 -0.22079928 0.3162193 0.058398508
-0.069962546 0.13347507 -0.07387791 -0.044527497 0.15439586 -0.0015117291 -0.35894078 -0.026937936
-0.18379366 -0.43377763 -0.026799887 0.11059423 -0.33429763 -0.20945962 0.5061247 0.3185564
0.039253563 -0.16397572 0.05949105 0.18975265 0.69754905 0.2562249 -0.40464044 0.075367674
0.12473685 -0.009195441 -0.211734 -0.10112798 0.33525765 0.12476566 -1.1769704 -0.03358646
-0.083328485 0.11733849 -0.24938102 0.12770715 -0.091699846 0.1424723 0.18527523 -0.17036846
0.04177335 0.18577018 0.14750965 0.15108803 0.1674114 0.32696503 -0.10526358 0.14966354
0.06584681 0.025158301 -0.06866359 -0.15639858 -1.1393596 0.089744836 0.20556584 -0.33480236
0.13276319 -0.12086321 0.15916342 0.003882489 -0.111375704 -0.18729763 0.15504506 0.36908317
0.1708102 -0.050993267 -0.2006029 -0.18769315 -0.24890818 0.12558825 0.074700564 0.021301942
-0.18097608 -0.1206151 -0.07493915 -0.02904353 0.1355136 0.06560834 0.486329 0.0944398
0.03567887 -0.07563753 0.03224444 -0.07206142 0.1892266 -0.24434356 -0.024263317 -0.0052434853
-0.09918124 -0.22558308 0.38792822 0.2249626 -0.30295143 0.25054765 -0.09207206 0.18414302
0.08415237 -0.098376304 0.12724908 0.148275 -0.07543963 -0.04139655 0.10610325 0.15635116
0.047454964 0.3745702 0.0439438 0.18395963 -0.28311327 0.08531727 -0.32674837 0.04274697
0.20651564 -0.08377565 -0.06310573 -0.18830241 -0.11700041 0.099852316 0.34405154 -0.08475696
0.046242964 -0.5010731 0.23810078 0.2903776 -0.1725443 -0.3300022 -1.6075379 -0.12840468
0.09058263 -0.42791197 -0.51421875 0.021770008 0.011313499 0.21462195 -0.07335251 -0.05574756
-0.38364008 0.26034796 -0.09037401 -0.10993905 -0.14071317 0.28930095 -0.11192109 -0.17535338
0.30600074 -0.7346105 -0.19556102 0.29328257 -0.13661747 0.17168657 0.39772147 0.12873599
-0.1635545 -0.25205797 0.107440285 0.14945291 -0.3618939 0.28177732 -0.15243517 0.045645878
0.22760187 0.18380713 0.16321582 0.05651657 -0.28472358 -0.25038537 -0.047398355 0.2734273
0.003095484 -0.08279678 0.20646042 0.15691227 -0.17007276 -0.48818874 -0.23737828 -0.5239126
-0.11498916 -0.0044223787 -0.27291295 0.31059724 0.17791674 0.16392685 0.6017691 -0.2930338
-0.040766712 0.091431335 -0.17980814 0.0495239 -0.16480036 0.14137743 0.3992275 0.33642772
-0.0805849 -0.24827282 -0.1837932 0.014676925 -0.0980592 0.43087113 -0.044384636 0.050196897
0.0075797117 0.20248136 -0.034556687 0.10928983 0.058508575 -0.18133196 -0.2783152 0.0183289
0.15389872 0.38974324 0.35403737 0.04537712 -0.31768146 0.43377635 0.06071824 -0.34560207
0.21492161 0.008826029 -0.00019603419 -0.008064628 -0.73496807 0.16004454 0.2262497 0.21052526
0.19320711 -0.1390764 0.0134447375 -0.22063938 -0.24867113 0.06493584 -0.17788954 0.22272661
00000000: a9a8 213d c0a1 453e d673 ad3d 4eab 573d
00000010: d229 49be ab58 5f3e d923 d0be 52c1 44bd
00000020: 3e6b 4dbe 471a 363e 0436 7abe c5cf b83e
00000030: 09df 3f3e aab3 053e 9814 91bd 7b14 333e
00000040: 7ad2 84be 3ab3 973d 375f b3be 7bad 163e
00000050: 4b81 b33e 3519 62be 7fe7 a13e 4633 6f3d
00000060: 8648 8fbd b0ad 083e 4d4d 97bd 7762 36bd
00000070: f319 1e3e 3625 c6ba 16c7 b7be f2ac dcbc
00000080: 6834 3cbe 1a18 debe 708b dbbc 3a7f e23d
00000090: 0f29 abbe 957c 56be 6391 013f d319 a33e
000000a0: 58c8 203d 40e9 27be e3ac 733d 854e 423e
000000b0: 9392 323f e92f 833e 082d cfbe 5e5a 9a3d
000000c0: 0976 ff3d 7aa8 16bc ccd0 58be 301c cfbd
000000d0: e4a6 ab3e 2385 ff3d f7a6 96bf f591 09bd
000000e0: 20a8 aabd 2a4f f03d bd5d 7fbe aac5 023e
000000f0: 21cd bbbd 42e4 113e cab8 3d3e 1275 2ebe
00000100: 881a 2b3d 8a3a 3e3e c50c 173e d2b6 1a3e
00000110: e56d 2b3e f667 a73e 6f94 d7bd 6641 193e
00000120: b1da 863d c818 ce3c 7f9f 8cbd f326 20be
00000130: 89d6 91bf 24cc b73d da7f 523e 376b abbe
00000140: 13f3 073e 2187 f7bd bcfb 223e 5b71 7e3b
00000150: f218 e4bd f3ca 3fbe 22c4 1e3e 78f8 bc3e
00000160: dee8 2e3e 51de 50bd d96a 4dbe a232 40be
00000170: c9e1 7ebe 359a 003e 9cfc 983d 6981 ae3c
00000180: cb51 39be 0d05 f7bd b279 99bd b2ec edbc
00000190: 14c4 0a3e aa5d 863d 1d00 f93e a769 c13d
000001a0: 0224 123d d9e7 9abd bf12 043d f094 93bd
000001b0: 9ec4 413e 3335 7abe ddc3 c6bc 8bd1 abbb
000001c0: 891f cbbd 40ff 66be 879e c63e 995c 663e
000001d0: 731c 9bbe c847 803e 4790 bcbd fd8f 3c3e
000001e0: 1458 ac3d 8479 c9bd 954d 023e 67d5 173e
000001f0: 1880 9abd 6e8f 29bd a94c d93d 851a 203e
00000200: 2360 423d aac7 bf3e 6afe 333d ea5f 3c3e
00000210: 39f4 90be d2ba ae3d 904b a7be 7217 2f3d
00000220: d678 533e 9192 abbd 943d 81bd 59d2 40be
00000230: e99d efbd 5f7f cc3d 8627 b03e 0f95 adbd
00000240: 4369 3d3d 5446 00bf b1d0 733e 5fac 943e
00000250: 74af 30be 0cf6 a8be cdc3 cdbf 847c 03be
00000260: 6383 b93d 4717 dbbe d7a3 03bf 0457 b23c
00000270: 415c 393c dbc5 5b3e d739 96bd 8e57 64bd
00000280: 796c c4be 544c 853e 0216 b9bd ba27 e1bd
00000290: 1d17 10be 411f 943e e236 e5bd d68f 33be
000002a0: 21ac 9c3e 6f0f 3cbf 2641 48be 2229 963e
000002b0: 73e5 0bbe 9bce 2f3e 26a2 cb3e 5ed3 033e
000002c0: d57a 27be be0d 81be a709 dc3d 2f0a 193e
000002d0: 284a b9be 1e45 903e f717 1cbe 2cf7 3a3d
000002e0: 7710 693e f037 3c3e 0c22 273e eb7d 673d
000002f0: 4ac7 91be 8332 80be c724 42bd aafe 8b3e
00000300: 9bdd 4a3b 5c91 a9bd 5c6a 533e 9cad 203e
00000310: 8e27 2ebe e0f3 f9be 4b13 73be 231f 06bf
00000320: 707f ebbd 9ae9 90bb 3fbb 8bbe 9a06 9f3e
00000330: ce2f 363e 71dc 273e 8a0d 1a3f 8708 96be
00000340: fffa 26bd 5a40 bb3d a01f 38be 93d9 4a3d
00000350: 6dc1 28be 3fc5 103e 8c67 cc3e 4140 ac3e
00000360: b209 a5bd 3b3b 7ebe 4934 3cbe 7c77 703c
00000370: 43d3 c8bd 249b dc3e aacc 35bd 439b 4d3d
00000380: 3b5f f83b 4657 4f3e 508b 0dbd 59d3 df3d
00000390: b0a6 6f3d 16af 39be 547f 8ebe 7d26 963c
000003a0: a097 1d3e 6d8c c73e 6344 b53e 5cdd 393d
000003b0: 25a7 a2be ef17 de3e b0b3 783d c1f2 b0be
000003c0: 6914 5c3e 0c9b 103c 878e 4db9 8021 04bc
000003d0: de26 3cbf b7e2 233e 00ae 673e ef93 573e
000003e0: 16d8 453e 0b6a 0ebe 5147 5c3c 4aef 61be
000003f0: a5a3 7ebe 15fd 843d ad28 36be 7212 643e

_fc2.bias f4 [32]
0.098121904 -0.020267127 -0.07815761 -0.010306796 0.13306436 0.2306147 0.016701937 0.08499942
0.27277702 -0.06521949 -0.2761522 -0.07457438 0.049086884 -0.06626675 0.11169014 0.10018548
-0.2749151 0.44121236 0.44615087 0.08833744 -0.02859564 -0.2715579 0.024161898 0.2068992
0.16609493 -0.10737436 0.027324714 -0.18132927 0.08984713 -0.09562252 0.116879575 0.117054984
00000000: 23f4 c83d 3f07 a6bc 1911 a0bd d6dd 28bc
00000010: 0642 083e 4326 6c3e 80d2 883c 2d14 ae3d
00000020: 6ea9 8b3e cc91 85bd d263 8dbe 74ba 98bd
00000030: 540f 493d ddb6 87bd cdbd e43d 0c2e cd3d
00000040: acc1 8cbe 96e6 e13e e36d e43e 42ea b43d
00000050: 6741 eabc a309 8bbe 2cef c53c 62dd 533e
00000060: ca14 2a3e 17e7 dbbd 14d8 df3c 61ae 39be
00000070: c601 b83d bdd5 c3bd 8f5e ef3d 86ba ef3d

_fc3.weight f4 [3, 32]
-0.054235306 0.016452445 -0.0027704344 -0.0056288596 0.0707373 0.09319062 -0.10182629 0.19628106
0.104140006 -0.3193417 0.26497492 0.33875662 0.34595877 -0.38233075 0.42264706 -0.3263575
-0.27840543 -0.40532026 -0.044807266 0.17048131 -0.19252378 0.18113294 -0.32293585 -0.42330673
-0.15597548 -0.13909076 0.16567238 0.22161967 0.17132936 0.15747356 0.007811327 0.06415053
0.32917508 0.34178787 -0.27341983 -0.36881995 -0.3776272 -0.12418718 0.7685577 -0.07870264
0.5563839 0.27776307 0.23168929 -0.3500032 0.29985407 0.454304 0.12096501 -0.08511517
-0.053186093 0.22291504 0.3886504 0.13778672 0.26257858 -0.48589423 -0.3802306 0.32400918
0.06858542 -0.12388578 0.16129547 -0.09837279 0.1389441 -0.44027382 0.19024572 -0.1916155
-0.21636528 -0.29230386 -0.10216194 0.122469224 -0.05331395 0.43089774 0.11205552 0.3564529
-0.2653165 -0.15036324 -0.25589618 -0.1775363 0.0043712747 -0.03400737 -0.299968 -0.113527335
0.6366846 0.3142545 -0.012660701 -0.250716 0.3919742 0.30267403 -0.4018321 0.15953207
-0.42441773 -0.49158016 0.4386911 -0.072810195 0.76236874 0.045238744 0.30257744 -0.3711052
00000000: d725 5ebd 47c7 863c 2d90 35bb 4c72 b8bb
00000010: b8de 903d b9da be3d 4d8a d0bd e7fd 483e
00000020: 5b47 d53d c180 a3be cbaa 873e 8271 ad3e
00000030: 8221 b13e dbc0 c3be 3265 d83e 5518 a7be
00000040: 288b 8ebe 2386 cfbe d387 37bd a792 2e3e
00000050: f424 45be ea7a 393e d957 a5be a9bb d8be
00000060: 09b8 1fbe cf6d 0ebe 05a6 293e 44f0 623e
00000070: f770 2f3e c040 213e 29f6 ff3b 5a61 833d
00000080: a389 a83e d2fe ae3e affd 8bbe f8d5 bcbe
00000090: 5a58 c1be d955 febd 33c0 443f da2e a1bd
000000a0: 2d6f 0e3f f636 8e3e f53f 6d3e 9f33 b3be
000000b0: 7986 993e 899a e83e 81bc f73d dd50 aebd
000000c0: a9d9 59bd d743 643e 2ffd c63e f617 0d3e
000000d0: b370 863e 21c7 f8be 96ad c2be 88e4 a53e
000000e0: 8376 8c3d d4b7 fdbd a42a 253e ac77 c9bd
000000f0: 5d47 0e3e 926b e1be c6cf 423e db36 44be
00000100: dc8e 5dbe daa8 95be 473a d1bd 25d1 fa3d
00000110: ba5f 5abd a19e dc3e 5d7d e53d ff80 b63e
00000120: 90d7 87be d2f8 19be d304 83be 13cc 35be
00000130: e93c 8f3b 504b 0bbd 6895 99be 0581 e8bd
00000140: c3fd 223f f7e5 a03e d46e 4fbc d95d 80be
00000150: d8b0 c83e 17f8 9a3e f0bc cdbe 605c 233e
00000160: 484d d9be 65b0 fbbe 1f9c e03e 831d 95bd
00000170: 992a 433f 434c 393d 6eeb 9a3e 8001 bebe

_fc3.bias f4 [3]
-0.08494037 0.10513842 0.15449798
00000000: 37f5 adbd d052 d73d b834 1e3e
