hw1/data/results/session_humanoid_pytorch/checkpoint.pth (torch_old, 55820 bytes, 6 tensors)

_fc1.weight f4 [32, 376]
6.2919064 -0.12889153 0.6333481 12.175675 -0.21573183 1.9316453 -11.623715 -7.8684545
-8.607751 2.760714 2.653656 4.2956867 -6.8428197 -0.5244632 -1.4148604 -1.1172993
-3.3931758 2.213073 1.0809501 -1.3702072 -0.94334966 -1.3764287 0.35712892 -3.6862566
1.6267859 0.9641406 -1.0898142 0.43503523 -0.06826041 -0.8779297 0.5707463 -0.41747475
0.14318113 0.23209587 -0.39209408 -0.76892686 -0.29130387 -0.2830691 0.25261167 0.5268039
0.29425222 0.18841961 -0.34214315 -0.2574735 0.10507758 -0.02658643 0.03253814 0.030237213
-0.022871511 -0.0018608086 0.032982826 0.051268503 0.020467639 0.0069668815 0.03457769 -0.059187017
0.023176031 -1.2476888 26.262104 -2.2113967 1.8633955 -0.85376537 -1.4486809 -0.0707086
-0.19772172 1.936197 2.1960776 -9.113952 7.659002 2.026951 -14.466223 -6.078183
5.895975 1.269097 -0.18115601 5.6367745 -0.8686567 -1.4062908 -56.564613 -47.222813
-44.89724 -8.155698 9.394027 6.0577493 -0.21637453 -6.5275507 -6.377153 -0.3381749
-2.3266072 -4.4919996 -5.252951 -3.301773 -4.408009 3.62862 -0.2770465 -1.2120086
-0.08554634 4.528674 -4.8754773 -2.983272 -0.89411753 0.73451895 -4.243491 2.224259
-0.27513033 3.6447413 2.2867048 -0.7827932 -2.5731115 0.32034263 0.46802342 3.14862
-1.3576703 0.7392296 -0.190692 5.2215967 8.940995 13.080396 -7.0888643 4.611889
5.9525533 3.4295049 4.070359 -1.9735563 -0.27547467 3.1104805 4.1549478 4.748302
-9.463677 11.628043 4.0270286 1.924157 0.95773286 -2.7044272 -0.18911931 1.1477196
2.0856717 -3.8157663 -11.140329 6.1360307 -1.818763 -2.5448828 -2.5170639 -2.725273
-0.27234238 0.9885843 -0.18194139 3.5689466 -5.1992016 -0.9242669 0.71570677 -0.25090688
-0.525702 -0.2669108 -0.19815308 -0.08846188 6.6125093 3.4593732 -9.557538 -3.3336577
7.189506 0.027859995 0.6689963 -1.0034118 -0.23409975 0.66427517 1.6083866 -1.8141732
7.990311 0.3429856 -0.7440621 -0.42207485 -0.11446644 0.4340729 -0.27255565 -0.49657407
2.988894 -0.8689812 5.230549 4.336226 -3.010666 0.4030267 1.1339903 0.22478463
-0.20125252 0.01821278 -0.012401536 -0.010845676 -0.042498756 0.027943477 0.040946297 0.48025322
0.5340134 -0.5272329 -0.3897142 0.7227793 -0.598246 0.4978449 0.19113936 -0.5999042
-0.37990308 5.0659785 -0.5275752 -0.47325748 0.3978509 1.1187488 -0.1407688 -5.0786195
-2.798739 -1.164394 0.14272472 0.276736 0.6066155 -0.5157453 -2.3330328 0.24991417
-0.23933344 -0.053126823 -0.03634641 0.2900931 0.064315125 0.29435462 -0.18036349 -0.0246371
-0.122683406 0.35749277 0.031284038 -0.3052528 -0.07474215 0.015727276 -0.09432989 -1.2879809
2.7438707 -0.10391764 0.016011156 -0.173888 0.3957113 0.5231089 0.19808905 -0.1349282
0.0014937596 -0.10259439 0.35597792 0.5596293 0.24649651 0.21488892 0.11771561 0.4012837
0.9874948 -1.013732 -0.25811112 -0.16311799 0.10799941 -0.19924141 0.8324974 -0.17472771
00000000: 4c57 c940 24fc 03be 1a23 223f 91cf 4241
00000010: cee8 5cbe 2740 f73f bdfa 39c1 61ca fbc0
00000020: 59b9 09c1 8aaf 3040 80d5 2940 4476 8940
00000030: 61f8 dac0 3843 06bf 251a b5bf aa03 8fbf
00000040: cb29 59c0 fda2 0d40 935c 8a3f f362 afbf
00000050: 5d7f 71bf d12e b0bf 9ad9 b63e a1eb 6bc0
00000060: 853a d03f ebd1 763f 087f 8bbf f0bc de3e
00000070: 1dcc 8bbd 00c0 60bf 6e1c 123f 40bf d5be
00000080: 139e 123e 8aaa 6d3e 8ec0 c8be 64d8 44bf
00000090: c825 95be 6fee 90be 5156 813e 9fdc 063f
000000a0: 3aa8 963e 12f1 403e 632d afbe 91d3 83be
000000b0: ea32 d73d c9cb d9bc b646 053d 08b4 f73c
000000c0: 095d bbbc 60e6 f3ba 0019 073d ecfe 513d
000000d0: c0ab a73c 704a e43b 56a1 0d3d 166e 72bd
000000e0: a9db bd3c 44b4 9fbf ca18 d241 8687 0dc0
000000f0: be83 ee3f 5e90 5abf 606e b9bf accf 90bd
00000100: 9077 4abe 4ed5 f73f 898c 0c40 bfd2 11c1
00000110: 8b16 f540 91b9 0140 a675 67c1 7a80 c2c0
00000120: d4ab bc40 c571 a23f f680 39be 7560 b440
00000130: 4960 5ebf 5601 b4bf 2a42 62c2 29e4 3cc2
00000140: c696 33c2 bd7d 02c1 ef4d 1641 15d9 c140
00000150: 4991 5dbe b2e1 d0c0 a311 ccc0 4325 adbe
00000160: 22e7 14c0 76be 8fc0 2d18 a8c0 4050 53c0
00000170: 690e 8dc0 4f3b 6840 0ad9 8dbe 1923 9bbf
00000180: eb32 afbd e6ea 9040 e903 9cc0 eeed 3ec0
00000190: e3e4 64bf 6f09 3c3f aeca 87c0 425a 0e40
000001a0: e2dd 8cbe 7143 6940 5f59 1240 2365 48bf
000001b0: dcad 24c0 f303 a43e c4a0 ef3e fd82 4940
000001c0: 24c8 adbf 273e 3d3f c344 43be 5217 a740
000001d0: 510e 0f41 4d49 5141 fad7 e2c0 9894 9340
000001e0: 517b be40 027d 5b40 6240 8240 7e9d fcbf
000001f0: 040b 8dbe 1d12 4740 55f5 8440 17f2 9740
00000200: 396b 17c1 770c 3a41 6bdd 8040 c74a f63f
00000210: fb2d 753f 5615 2dc0 7ea8 41be 7ae8 923f
00000220: a57b 0540 8435 74c0 ca3e 32c1 5d5a c440
00000230: 3acd e8bf 5cdf 22c0 9317 21c0 df6a 2ec0
00000240: 7670 8bbe dc13 7d3f d84e 3abe 9f69 6440
00000250: dc5f a6c0 c19c 6cbf 8f38 373f de76 80be
00000260: 6894 06bf 88a8 88be a4e8 4abe 812b b5bd
00000270: ad99 d340 5f66 5d40 adeb 18c1 a65a 55c0
00000280: 6f10 e640 a53a e43c 5743 2b3f cc6f 80bf
00000290: d8b7 6fbe f00d 2a3f 9ddf cd3f d436 e8bf
000002a0: a1b0 ff40 cf9b af3e db7a 3ebf 321a d8be
000002b0: 626d eabd ce3e de3e 6a8c 8bbe f53e febe
000002c0: 0a4a 3f40 8d75 5ebf a860 a740 5dc2 8a40
000002d0: c0ae 40c0 8459 ce3e 9826 913f f12d 663e
000002e0: 2415 4ebe f832 953c d02f 4bbc 10b2 31bc
000002f0: 2d13 2ebd b8e9 e43c 4eb7 273d c0e3 f53e
00000300: 1ab5 083f bcf8 06bf 9f88 c7be 1008 393f
00000310: a626 19bf 87e5 fe3e 09ba 433e 5293 19bf
00000320: a882 c2be 7f1c a240 2b0f 07bf ce4e f2be
00000330: 1db3 cb3e 2933 8f3f b225 10be 0d84 a2c0
00000340: 8a1e 33c0 dd0a 95bf 6e26 123e 57b0 8d3e
00000350: 274b 1b3f e207 04bf 6950 15c0 80e9 7f3e
00000360: d313 75be 839b 59bd f9df 14bd 1587 943e
00000370: a6b7 833d a6b5 963e 35b1 38be bed3 c9bc
00000380: 7041 fbbd 4b09 b73e b123 003d 184a 9cbe
00000390: 6a12 99bd 7dd6 803c 0830 c1bd 8fdc a4bf
000003a0: 949b 2f40 c6d2 d4bd d429 833c b20f 32be
000003b0: ac9a ca3e 77ea 053f dbd7 4a3e 9e2a 0abe
000003c0: 41ca c33a 021d d2bd bd42 b63e de43 0f3f
000003d0: 9569 7c3e d70b 5c3e e214 f13d 0f75 cd3e
000003e0: 76cc 7c3f f8c1 81bf 2427 84be 6708 27be
000003f0: cb2e dd3d f105 4cbe 8d1e 553f d2eb 32be

_fc1.bias f4 [32]
-0.2027139 0.0032688568 0.08855869 0.15859932 0.27343765 0.33607206 -0.25923672 -0.090513736
0.25851658 -0.85355586 -0.2776464 0.378706 -0.42732093 0.089386895 -0.06343786 0.063329145
-0.23815303 0.02698094 0.40365466 0.69887644 0.695402 -0.44767427 -0.30872142 0.013435806
0.21169978 -0.10396945 0.007583734 0.9915739 0.4077045 0.54362744 0.6475707 0.6780853
00000000: 3c94 4fbe 513a 563b 425e b53d dc67 223e
00000010: 0500 8c3e a311 ac3e adba 84be 445f b9bd
00000020: 495c 843e a382 5abf ab27 8ebe c1e5 c13e
00000030: cfc9 dabe 7a10 b73d b5eb 81bd b6b2 813d
00000040: 63de 73be 2207 dd3c d3ab ce3e 91e9 323f
00000050: de05 323f 9035 e5be bc10 9ebe db21 5c3c
00000060: d4c7 583e efed d4bd f980 f83b cad7 7d3f
00000070: a5be d03e 2b2b 0b3f 32c7 253f 0097 2d3f

_fc2.weight f4 [32, 32]
-0.15732644 -0.06306912 -0.024763623 0.101989634 0.013788385 0.023420405 -0.17964388 -0.0016452138
0.13524194 -0.15726168 -0.16971672 0.0016621803 0.058388058 0.042670745 -0.0077932915 0.009834564
-0.09913346 0.04425469 -0.057564892 -0.12350668 -0.041234948 0.007384297 -0.011145616 0.11961969
0.10944864 -0.034287855 0.07049718 0.105807915 -0.024744019 0.051849585 -0.053789753 0.1525941
-0.029420393 0.04003346 -0.018864468 0.099629804 0.16534732 0.020876342 -0.013085639 -0.0018880303
0.056717064 -0.011301077 -0.030188285 -0.01929607 0.22761518 0.10358136 -0.18119007 0.031176392
-0.010801965 -0.07846489 0.025463864 -0.10861439 -0.015026472 0.04530545 0.051054966 -0.05406673
-0.07254697 0.09100088 0.13038905 -0.063598946 -0.027603425 -0.0280876 0.025236936 -0.13321087
0.027586954 -0.10906485 -0.15948293 -0.08179742 0.20947614 -0.001946792 -0.06116822 0.11442018
0.011650195 0.005160744 -0.02760492 0.0035803488 0.01092858 0.074783444 -0.00029318023 -0.10309832
-0.13617508 0.002894294 -0.021642 0.002655847 0.06478812 0.08746508 -0.034384266 0.081788845
0.1367588 0.08559892 -0.062060144 -0.02025899 -0.07205144 -0.01784878 -0.1116036 0.041388642
0.0072716894 -0.10152701 -0.07282914 -0.094786726 0.0007516006 0.06282155 -0.03866061 0.012277315
-0.13657792 -0.010557585 -0.03561312 -0.012314166 0.04915561 -0.021964772 0.06781417 -0.38775846
0.07297543 -0.039350756 -0.23953813 0.041672647 -0.031952653 -0.10427021 0.06481154 -0.062059484
0.28329635 -0.07151261 -0.014776465 -0.026799956 -0.009506043 0.026130859 0.09249069 -0.061354365
0.0030924205 -0.057521537 -0.2052932 0.12883645 -0.009302835 0.13231516 0.0060021854 0.04196357
0.02839134 0.07147885 -0.1829249 -0.10814251 0.0709993 0.1430735 -0.037194155 0.10588157
-0.045294892 0.1147765 0.0035059033 0.1433705 0.028644722 0.014729972 -0.070115484 -0.019495478
-0.28362042 -0.15747707 -0.027382096 0.06502861 0.06711866 0.027279902 -0.053828288 0.06065702
-0.12615786 -0.030510208 -0.034597423 0.115366064 -0.0028435956 -0.037775464 0.23067129 0.034688234
-0.0035874478 0.033459596 -0.012256343 -0.14265747 -0.020989576 0.040718697 0.09812757 0.010432925
-0.05078646 0.12824234 0.09511943 -0.12599239 0.020224964 -0.0016400513 0.05116125 0.06245097
0.099952355 0.03985261 -0.24340124 -0.033927217 -0.24451487 0.0376704 -0.049217064 0.01609767
-0.059788786 -0.025823625 0.19012015 -0.0080211405 -0.06487203 0.09217178 0.119481325 0.00434861
-0.06590341 -0.05745323 0.01586615 -0.05500384 0.022841219 0.10372687 0.006920429 -0.10281234
0.07847079 0.12856644 -0.061490647 0.027203532 -0.067294575 -0.09598177 0.04449733 0.009189023
0.2998677 -0.1615974 0.034134325 -0.15969382 0.028759636 0.06975244 0.16710907 0.03154085
0.15091461 -0.19943962 0.021407345 0.08393736 0.047237612 0.008820494 0.038865004 -0.032059904
0.026317872 -0.053430714 0.01556299 -0.037277948 0.14970677 0.0067861406 -0.03218433 0.021846928
-0.07185572 0.014962051 0.16461416 0.14160253 0.017672028 -0.14610429 0.014071617 -0.014280087
0.097822204 0.09761142 -0.011221526 -0.03370923 -0.034800198 -0.19225872 0.04456991 0.031994775
00000000: 2f1a 21be 622a 81bd 15dd cabc f1df d03d
00000010: aee8 613c 26dc bf3c 91f4 37be 37a4 d7ba
00000020: dd7c 0a3e 3509 21be 38ca 2dbe 84dd d93a
00000030: 5128 6f3d 85c7 2e3d de5e ffbb 2721 213c
00000040: 7c06 cbbd 6844 353d 2ac9 6bbd 12f1 fcbd
00000050: fae5 28bd f9f7 f13b 1a9c 36bc 2bfb f43d
00000060: 9c26 e03d 6c71 0cbd d360 903d d2b1 d83d
00000070: f8b3 cabc 3b60 543d a552 5cbd a141 1c3e
00000080: 0903 f1bc 20fa 233d a889 9abc b60a cc3d
00000090: cf50 293e dd04 ab3c 2665 56bc c977 f7ba
000000a0: 2750 683d 2728 39bc 6c4d f7bc cb12 9ebc
000000b0: f413 693e 7722 d43d e489 39be a265 ff3c
000000c0: bafa 30bc 33b2 a0bd 9899 d03c 3971 debd
000000d0: 9731 76bc 3592 393d 031f 513d 1375 5dbd
000000e0: 8193 94bd ab5e ba3d b584 053e 2a40 82bd
000000f0: 9420 e2bc f717 e6bc b1bd ce3c 6e68 08be
00000100: 09fe e13c 645d dfbd 7e4f 23be 6885 a7bd
00000110: ea80 563e 802b ffba 878b 7abd 2155 ea3d
00000120: 76e0 3e3c 751b a93b b723 e2bc 49a4 6a3b
00000130: c90d 333c 1028 993d fcb5 99b9 3625 d3bd
00000140: 7b71 0bbe 32ae 3d3b 904a b1bc b80d 2e3b
00000150: a2af 843d e420 b33d 84d6 0cbd e980 a73d
00000160: 800a 0c3e 7d4e af3d c732 7ebd 2ef6 a5bc
00000170: b58f 93bd 9b37 92bc 6e90 e4bd 2387 293d
00000180: 5a47 ee3b 65ed cfbd 7227 95bd 8b1f c2bd
00000190: 1007 453a 96a8 803d 965a 1ebd cb26 493c
000001a0: 15db 0bbe b9f9 2cbc 10df 11bd 5bc1 49bc
000001b0: 6557 493d 77ef b3bc 28e2 8a3d 4788 c6be
000001c0: 2474 953d 422e 21bd 7c49 75be f0b0 2a3d
000001d0: c9e0 02bd 9f8b d5bd eabb 843d 1632 7ebd
000001e0: 380c 913e 3475 92bd fc18 72bc 958b dbbc
000001f0: 3cbf 1bbc 6210 d63c c26b bd3d b74e 7bbd
00000200: 35aa 4a3b b49b 6bbd 6138 52be b4ed 033e
00000210: eb6a 18bc a07d 073e fbad c43b fee1 2b3d
00000220: f594 e83c 8163 923d aa50 3bbe d279 ddbd
00000230: 1568 913d dc81 123e e658 18bd 70d8 d83d
00000240: 2387 39bd f10f eb3d 4cc3 653b b7cf 123e
00000250: 56a8 ea3c fb55 713c b598 8fbd fbb4 9fbc
00000260: b236 91be ab41 21be 6b50 e0bc b82d 853d
00000270: 8275 893d 1a7a df3c 0d7b 5cbd 7f73 783d
00000280: 872f 01be 8bf0 f9bc 07b6 0dbd 0b45 ec3d
00000290: 9e5b 3abb 72ba 1abd 1835 6c3e 4015 0e3d
000002a0: 631b 6bbb ee0c 093d d4ce 48bc cd14 12be
000002b0: 55f2 abbc a6c8 263d 1bf7 c83d dcee 2a3c
000002c0: 7705 50bd f651 033e facd c23d 2604 01be
000002d0: d3ae a53c fdf6 d6ba 758e 513d 97cc 7f3d
000002e0: d2b3 cc3d 7e3c 233d 2d3e 79be 44f7 0abd
000002f0: 1b62 7abe 474c 1a3d d597 49bd 43df 833c
00000300: 16e5 74bd 118c d3bc dbae 423e 1a6b 03bc
00000310: a0db 84bd 8fc4 bc3d a0b2 f43d c97e 8e3b
00000320: 5ef8 86bd 1454 6bbd baf9 813c b54b 61bd
00000330: 821d bb3c c16e d43d c4c4 e23b 478f d2bd
00000340: 4bb5 a03d eca6 033e 9edd 7bbd f1d9 de3c
00000350: bdd1 89bd 1792 c4bd d542 363d 8e8d 163c
00000360: 4288 993e ca79 25be 6fd0 0b3d c786 23be
00000370: 5499 eb3c 5eda 8e3d a41e 2b3e fa30 013d
00000380: 5c89 1a3e e639 4cbe 755e af3c 5ae7 ab3d
00000390: 3a7c 413d d583 103c e930 1f3d 3f51 03bd
000003a0: 9498 d73c 2ada 5abd e9fb 7e3c c3b0 18bd
000003b0: bb4c 193e 465e de3b b7d3 03bd 54f8 b23c
000003c0: 1729 93bd 6423 753c 9d90 283e 4100 113e
000003d0: eec4 903c 5d9c 15be a48c 663c 07f7 69bc
000003e0: 0257 c83d 7fe8 c73d 7eda 37bc b112 0abd
000003f0: a78a 0ebd 78df 44be f08e 363d f40c 033d

_fc2.bias f4 [32]
0.30840543 2.0010617 2.1769886 4.2136793 1.6239073 1.8865631 0.73796725 -0.48748294
-0.39220643 -0.63459855 2.6587756 -0.3191327 -1.5304621 -1.94618 -2.9317846 -3.6583946
0.85663867 3.1475956 -2.6412668 -0.9492505 1.8106637 0.29614928 -0.23840214 0.9921593
1.617686 3.4622488 4.615974 -2.4685166 -0.3457272 5.5997043 0.5211393 3.1055868
00000000: 51e7 9d3e 6511 0040 c853 0b40 76d6 8640
00000010: 32dc cf3f e67a f13f 6ceb 3c3f 5d97 f9be
00000020: 48cf c8be 0d75 22bf 6129 2a40 5c65 a3be
00000030: 2fe6 c3bf 6d1c f9bf 5ca2 3bc0 2323 6ac0
00000040: ac4c 5b3f 3572 4940 840a 29c0 1502 73bf
00000050: d4c3 e73f e1a0 973e b11f 74be 27fe 7d3f
00000060: 5610 cf3f 7c95 5d40 0fb6 9340 2dfc 1dc0
00000070: 2803 b1be c730 b340 6369 053f efc1 4640

_fc3.weight f4 [17, 32]
-0.06014772 0.08345063 -0.03444731 0.0132086985 0.022305714 -0.020835035 -0.003153979 0.06278605
-0.08323499 0.042013515 -0.09095198 0.0029304235 -0.084991775 0.042550888 -0.032281905 -0.021914992
0.00249765 0.04227323 0.008813007 0.054727655 -0.07031323 -0.023428502 -0.004530853 0.016069198
-0.019372214 -0.044777084 -0.00700708 -0.0018822146 0.030381514 -0.115917124 0.024386432 -0.009082956
0.032807544 -0.009030863 0.039957203 0.039546378 0.0076730433 -0.048468404 0.010058675 0.035236638
0.06483165 0.03126931 0.04111806 -0.060418077 -0.04991391 0.02384439 0.020221116 0.040870894
0.05486698 0.011479217 -0.042804934 0.03008651 -0.03724187 0.009503707 0.06325302 -0.06728886
-0.021886231 0.02028987 0.018412156 -0.006629954 0.014117586 0.108998954 0.046831783 -0.020620193
-0.0018594216 -0.033291034 0.004743045 -0.007380578 0.08695431 -0.024111386 -0.035111517 0.07525124
0.031781938 -0.029473098 -0.0025692235 0.027302857 -0.058748588 0.008632569 -0.006965984 0.0019029273
-0.0703115 -0.052953288 0.051295687 0.035846926 0.13240618 -0.068559594 -0.05694871 -0.008484069
-0.06903692 -0.047951877 0.08017386 0.02885165 0.06125484 0.06348382 -0.048391305 -0.019978417
-0.045921575 -0.07641149 -0.034166913 -0.064273246 -0.05353643 -0.07915358 0.030149708 -0.050047383
0.020928103 -0.06889799 0.020039175 0.17279802 -0.0034023842 0.025807187 0.032571763 0.055448607
0.03818402 0.02268775 -0.0020514138 0.037560556 0.007198731 0.012377693 -0.034236852 -0.08214969
0.04107273 0.01604908 -0.020363534 0.010171766 0.052604478 0.0913294 0.0037172313 -0.021576168
0.011661553 -0.023571173 0.08144248 0.089772515 0.09266483 0.033845592 -0.013998942 0.046542335
0.011301902 0.015943184 -0.037982486 0.017763589 0.005076069 -0.054446086 -0.02428149 0.0316008
-0.049112096 0.009504878 -0.023135046 0.0010509635 0.0036093853 -0.023403168 0.029841403 0.019129965
-0.021157902 0.048125025 0.027354991 -0.015924515 -0.10314972 -0.017155902 -0.0014002916 -0.012659512
-0.019826371 0.050803218 -0.03320275 -0.04698056 -0.033262968 0.12317521 -0.007183852 0.009634299
-0.018868392 -0.045827642 -0.02643387 0.09128037 -0.028250786 -0.113012254 -0.062057417 -0.0077326954
-0.05913284 0.08408698 -0.03990475 0.037204564 0.0048783524 -0.054109164 -0.014098223 0.043802686
0.015717527 0.11616137 0.047030054 -0.09986204 0.013792418 -0.024549747 -0.002447727 -0.08852561
0.05316517 -0.109603636 0.02390895 -0.029683182 0.039202113 -0.027967822 -0.00024010357 -0.0058695683
-0.10470219 -0.042696703 -0.104955725 0.034246165 -0.016379213 -0.04370504 0.062009584 -0.018638888
-0.06501124 0.008585436 0.040466025 0.032793857 0.01645681 0.12953272 -0.034021072 0.0025837382
0.021852836 0.04308225 0.07574331 0.04574837 0.00616558 0.026729869 -0.031070644 -0.004609903
-0.010064154 -0.054235954 0.037279006 -0.07100292 -0.11401385 -0.009871584 0.055105597 0.019593315
0.022357393 -0.029747643 -0.017033467 0.13769187 0.001469032 0.03036164 -0.0051208003 -0.005979202
-0.023041911 -0.08322499 -0.007293886 -0.039302967 -0.009709645 -0.0123940725 0.0061609494 0.09191714
-0.09897999 -0.049019217 0.034775507 0.0036077488 0.00991606 -0.100631915 -0.003174075 0.04971761
00000000: 755d 76bd 2ae8 aa3d 9f18 0dbd 4c69 583c
00000010: 79ba b63c 3cae aabc fdb2 4ebb f995 803d
00000020: 1b77 aabd 5d16 2c3d 0845 babd 590c 403b
00000030: 2b10 aebd d749 2e3d 083a 04bd 1287 b3bc
00000040: 9daf 233b b226 2d3d 6e64 103c 1b2a 603d
00000050: 6200 90bd 21ed bfbc 8d77 94bb 8da3 833c
00000060: 7ab2 9ebc 2d68 37bd a69b e5bb a4b4 f6ba
00000070: a7e2 f83c f565 edbd 0ec6 c73c aed0 14bc
00000080: 3461 063d 2ff6 13bc 2aaa 233d 62fb 213d
00000090: 276e fb3b ce86 46bd 24cd 243c 4b54 103d
000000a0: 75c6 843d 3f14 003d 696b 283d f278 77bd
000000b0: 8772 4cbd 4f55 c33c c1a6 a53c 3d68 273d
000000c0: 33bc 603d 5313 3c3c 3a54 2fbd fc77 f63c
000000d0: ee8a 18bd 70b5 1b3c cd8a 813d bece 89bd
000000e0: c14a b3bc f136 a63c 17d5 963c 1640 d9bb
000000f0: 734d 673c d83a df3d afd2 3f3d aeeb a8bc
00000100: d6b7 f3ba 2e5c 08bd 8c6b 9b3b c7d8 f1bb
00000110: 1a15 b23d 3e85 c5bc 18d1 0fbd 521d 9a3d
00000120: c72d 023d 9171 f1bc 6b60 28bb 3eaa df3c
00000130: 5ca2 70bd 9e6f 0d3c e942 e4bb a56b f93a
00000140: 7aff 8fbd 8ce5 58bd 6d1b 523d 3ad4 123d
00000150: 7c95 073e f968 8cbd 0d43 69bd c400 0bbc
00000160: 3b63 8dbd 3069 44bd 3132 a43d 4c5a ec3c
00000170: 5be6 7a3d ce03 823d f635 46bd c7a9 a3bc
00000180: 4318 3cbd a17d 9cbd 9bf2 0bbd b1a1 83bd
00000190: 0449 5bbd 461b a2bd 85fc f63c 7cfe 4cbd
000001a0: 6a71 ab3c 641a 8dbd 3229 a43c f7f1 303e
000001b0: 89fa 5ebb 9869 d33c f869 053d 141e 633d
000001c0: d966 1c3d a9db b93c 0371 06bb 19d9 193d
000001d0: 55e3 eb3b cfcb 4a3c f13b 0cbd 193e a8bd
000001e0: e13b 283d 5c79 833c 6dd1 a6bc 7ba7 263c
000001f0: cb77 573d e90a bb3d cb9c 733b 81c0 b0bc
00000200: 1910 3f3c 5518 c1bc 51cb a63d a7da b73d
00000210: 0fc7 bd3d ada1 0a3d d25b 65bc 2da3 3e3d
00000220: 9d2b 393c 489b 823c 8693 1bbd f284 913c
00000230: 2755 a63b dc02 5fbd fae9 c6bc d76f 013d
00000240: c429 49bd 59ba 1b3c b585 bdbc 7cc0 893a
00000250: 708b 6c3b 00b8 bfbc f575 f43c 72b6 9c3c
00000260: 5653 adbc bf1e 453d 9317 e03c 2174 82bc
00000270: 2940 d3bd 898a 8cbc fd89 b7ba d869 4fbc
00000280: ea6a a2bc 0917 503d 9bff 07bd b06e 40bd
00000290: c03e 08bd 4943 fc3d 8566 ebbb 2ed9 1d3c
000002a0: e391 9abc c4b5 3bbd d88b d8bc 34f1 ba3d
000002b0: 316e e7bc f872 e7bd eb2f 7ebd 8d62 fdbb
000002c0: 4735 72bd cb35 ac3d 2a73 23bd d063 183d
000002d0: 96da 9f3b 92a1 5dbd 3cfc 66bc 726a 333d
000002e0: 0bc2 803c 03e6 ed3d 96a2 403d 7884 ccbd
000002f0: 98f9 613c 8d1c c9bc 0b6a 20bb ea4c b5bd
00000300: b9c3 593d df77 e0bd b4dc c33c 252a f3bc
00000310: 6592 203d c61c e5bc 50c4 7bb9 8255 c0bb
00000320: 1a6e d6bd bde2 2ebd 07f3 d6bd b545 0c3d
00000330: b32d 86bc 0e04 33bd c3fd 7d3d 95b0 98bc
00000340: 9d24 85bd eea9 0c3c b4bf 253d da52 063d
00000350: 6fd0 863c 3aa4 043e ae59 0bbd ef53 293b
00000360: b804 b33c 0377 303d 4f1f 9b3d a562 3b3d
00000370: a208 ca3b 99f8 da3c dd87 febc ab0e 97bb
00000380: 1fe4 24bc 8526 5ebd dfb1 183d fb69 91bd
00000390: 1880 e9bd 6dbc 21bc 68b6 613d 2982 a03c
000003a0: da26 b73c 54b1 f3bc c589 8bbc 19ff 0c3e
000003b0: 898c c03a f9b8 f83c 63cc a7bb 2fed c3bb
000003c0: 64c2 bcbc dd71 aabd 8d01 efbb 26fc 20bd
000003d0: 3415 1fbc 8210 4bbc cae1 c93b 0e3f bc3d
000003e0: 05b6 cabd 60c8 48bd c370 0e3d fb6f 6c3b
000003f0: f876 223c 1b18 cebd 2404 50bb b1a4 4b3d

_fc3.bias f4 [17]
0.625772 -0.46433797 -0.71438676 0.35638174 -0.3186408 0.4820779 0.80976737 -0.43025792
-0.053820085 1.5229957 0.4435716 0.5411197 0.03435663 -0.05224447 0.08074758 0.79720175
-0.46920952
00000000: 9832 203f b5bd edbe 0de2 36bf ab77 b63e
00000010: e324 a3be ead2 f63e ea4c 4f3f c44a dcbe
00000020: 7372 5cbd 86f1 c23f d11b e33e d286 0a3f
00000030: 8ab9 0c3d 4cfe 55bd fd5e a53d 6a15 4c3f
00000040: 3b3c f0be
